src/realtime_getdata/TempParam/K60168-Test-00256-008-v0.0.8-20230717_120cm/ai_acc_weight/sram_tflite/TinyML1M/LSTM.tflite (tflite, 136936 bytes, 14 tensors)

online_lstm_fw/dense_3/bias f4 [4]
000000 0f 1b d0 be a8 12 b3 be cb 50 30 bf 40 e7 31 bf
       -0.40645644 -0.3497517 -0.6887328 -0.69493484

arith.constant f4 [64, 64]
000000 6f 5e a8 3e d0 74 92 3f d7 5b 44 bf 90 c8 a3 3e
       0.32884547 1.1441898 -0.76702636 0.31988955
000010 82 eb b6 be 4c 64 60 3f 98 3a 2b 3f 1f 1d 4f be
       -0.35726553 0.8765304 0.6688628 -0.20225953
000020 aa aa 62 bd 9c 5e 02 3f 79 2d 47 bd d7 f6 a1 3e
       -0.05533854 0.5092561 -0.04862735 0.31633636
000030 15 84 6b bd 69 e7 82 bf ed d9 c3 3d b2 52 94 3f
       -0.05749901 -1.0226871 0.095630504 1.1587737
000040 73 5e 8e 3d b3 4e d0 3e 0f a9 c1 3e 5b 52 52 be
       0.069516085 0.40685043 0.37824294 -0.20539229
000050 f9 8f 85 3e 50 48 95 be 05 3c 5d bf a6 a4 8b be
       0.26086405 -0.29156733 -0.8641971 -0.27274054
000060 43 0b 82 be 04 3c ca 3e 78 00 03 c0 ad de 2c bf
       -0.25399217 0.39498913 -2.0469036 -0.67527276
000070 a1 84 c3 3f 77 45 44 3f 90 37 d9 bd 6b 00 5b bf
       1.527485 0.76668495 -0.10606301 -0.8554751
000080 b1 1b 91 3d ff 92 ed 3d 47 e5 36 3f ac f7 81 bf
       0.0708536 0.11600303 0.714436 -1.0153708
000090 86 0f 4b be 44 98 b4 3e f4 7e fc bc bf a5 23 3f
       -0.1983014 0.3527242 -0.030822255 0.63924783
0000a0 56 12 e2 3c 37 24 8d 3f d8 ef 89 3e 84 9e 19 3f
       0.027596634 1.1026677 0.269408 0.600075
0000b0 79 25 1b bf 72 bb dd be e0 a0 d4 3e 69 81 27 3e
       -0.60604054 -0.43307072 0.41528988 0.1635796
0000c0 96 58 f2 3d a6 b2 23 3f 97 93 58 bf de 61 da 3c
       0.11833303 0.6394447 -0.84600204 0.026657995
0000d0 14 e9 56 3d 6a 27 1d bf 55 b6 4b 3f 94 6b 9d bd
       0.052468374 -0.61388266 0.7957509 -0.076865345
0000e0 39 d6 1d 3f f5 e5 09 3f 77 69 89 3f 23 96 db be
       0.61655 0.5386651 1.073531 -0.42887983
0000f0 3f af 4a bf 99 2b 63 be 09 6e 94 3f 65 92 c2 be
       -0.79173654 -0.221846 1.159608 -0.38002315
000100 f6 ca 1b bf a2 a0 96 bf eb d9 23 bf 2e f9 8a bf
       -0.6085657 -1.1767771 -0.6400439 -1.0857294
000110 b3 71 e4 be 87 14 ee 3e fd 1d 49 bf 01 e6 9e be
       -0.44617996 0.46500036 -0.78561383 -0.31034854
000120 0b f0 54 bf ee b3 8f be ec ce ba 3d 3a c3 4b 3e
       -0.83178777 -0.28066963 0.091214985 0.19898692
000130 2c f3 ca be 78 fd 45 3e 7c cf 85 3e ae 00 58 be
       -0.3963865 0.19334972 0.2613486 -0.2109401
000140 e1 22 ee 3e a5 57 ec be 71 14 84 3e 52 4f 93 be
       0.46510985 -0.46160617 0.25796846 -0.28771454
000150 2e f3 14 bf c1 a3 8e bf 87 fd d8 3e cf 13 a5 bf
       -0.5818356 -1.1143724 0.42380926 -1.289667
000160 46 77 b2 3e 8c 76 4f bf c0 ad 82 3e 3d 9b 6c be
       0.34856623 -0.81040263 0.25523186 -0.23106094
000170 4a ce 01 3f b6 a6 09 bf 48 77 1a bd 8b bd 39 be
       0.507054 -0.53770006 -0.03771141 -0.18138711
000180 25 1d 6b 3c 10 52 4f 3e ac 60 96 bf 6b 7a d8 3e
       0.01435021 0.20246148 -1.1748252 0.42280897
000190 ae bb e3 3e 78 4b 89 3f 3f 3b 84 3d e4 8c b3 bd
       0.44479126 1.0726156 0.06456613 -0.08767107
0001a0 84 57 4e bf 88 f2 51 be 95 03 1d 3e 58 12 47 bf
       -0.8060229 -0.20502675 0.15333398 -0.77762365
0001b0 82 97 8c 3e 69 22 66 bf e1 76 3a 3f 16 b4 12 bf
       0.2745934 -0.89896256 0.72837645 -0.5730604
0001c0 23 5c 35 3f 8e fe 99 3e 11 61 91 be 1c 9b eb bd
       0.70843714 0.30077022 -0.28394368 -0.11504194
0001d0 f6 2d ee bd 71 0f bf bf 84 78 9a be cd 4f f0 3e
       -0.1162986 -1.4926587 -0.3017007 0.46935883
0001e0 66 e4 1e 3d 54 fd 22 3f eb 91 9e 3e 4f ba ce 3c
       0.038792036 0.636678 0.30970702 0.025235323
0001f0 6c 51 30 bd 51 6f 87 be 71 31 71 3e 5d 14 a6 3f
       -0.0430464 -0.26452115 0.23554017 1.2974964
000200 28 0e eb be c2 9d 26 3f e9 2a 8f 3f c5 73 96 bf
       -0.45909238 0.6508447 1.118497 -1.175408
000210 2f b5 2c 3f 0f 8a 90 bf b6 22 e6 3f 64 39 56 bd
       0.67463964 -1.1292132 1.7979343 -0.052300826
000220 20 fa 0b bd 48 fc 09 bf a7 e5 d5 3f c1 3a af 3f
       -0.034174085 -0.53900576 1.6710709 1.3689805
000230 ce 3e 69 bd dc e3 aa 3d 0b b3 b7 bf 05 e8 00 3e
       -0.05694466 0.08344242 -1.4351515 0.12588508
000240 f4 fd 95 be be 58 1a bf 58 c2 1e bf 64 e2 fe be
       -0.29295313 -0.6029166 -0.62015295 -0.49782097
000250 e0 6c 30 bf fa 92 34 3f 00 2b 11 bf 65 77 7a bf
       -0.6891613 0.7053677 -0.5670624 -0.9783843
000260 af c3 6c bf b9 bf 30 3f e6 33 98 bd e3 39 12 be
       -0.9248609 0.69042546 -0.07431774 -0.14279895
000270 02 00 b0 3f 78 e3 db 3e da d8 0b 3e 7b ae f7 bd
       1.3750002 0.42946982 0.13656941 -0.120938264
000280 dd a1 85 bd 99 ae 16 3f 80 ff ba 3d 69 d3 71 be
       -0.065250136 0.58860165 0.09130764 -0.23615803
000290 23 fc 8a bf 09 59 b1 3e f0 ea b1 bf 6b ac 99 3f
       -1.0858196 0.3463824 -1.3899822 1.2005743
0002a0 fe 48 bf 3f 3d a6 4d 3f 49 69 02 bf 57 02 96 be
       1.494415 0.80331784 -0.509419 -0.2929866
0002b0 e8 5d fe be e1 28 8f bf bf 5a 2e be 5d 1b b7 be
       -0.4968102 -1.118435 -0.17026804 -0.35763064
0002c0 16 34 5f 3f c3 ea 45 bf 86 01 bf 3e 24 52 30 bf
       0.8718885 -0.7731134 0.3730585 -0.68875337
0002d0 26 41 ce bd 5f 58 57 3f c4 0c 2d bf 2c 38 6e bf
       -0.1007102 0.8411922 -0.67597604 -0.9305446
0002e0 98 f2 1e 3f 04 96 38 3e 8a 53 e7 3c 47 1c d9 be
       0.6208892 0.18025976 0.028238077 -0.42404386
0002f0 0b 16 a0 3f c7 25 d1 be dc 5b 84 bc 2c 8b 7a 3f
       1.2506727 -0.40849134 -0.016157083 0.9786861
000300 46 20 01 bf c9 db e4 3e 67 a0 94 3e ee e1 cf 3e
       -0.5043987 0.44698933 0.29028627 0.40602058
000310 84 12 68 3e 7f 56 5f be 3a 5f e7 3d 87 13 d9 3e
       0.22663313 -0.2181034 0.1129746 0.4239771
000320 e1 2b 98 3e a2 db ca 3e d1 fa 62 bf 5a 12 83 be
       0.29720977 0.39620692 -0.88663965 -0.2559994
000330 c0 e6 a8 be 84 97 30 be a2 44 fe 3e d2 92 53 3c
       -0.32988548 -0.17245299 0.49661738 0.012913423
000340 70 8f 2f 3e a2 e4 5c 3f bb 18 0c bd fb 29 9c bc
       0.17144561 0.86286366 -0.034203272 -0.019062987
000350 6f 10 37 3f 3a 0e 18 3f 1a 36 6c bf e6 98 9d bd
       0.7150945 0.5939671 -0.9227005 -0.07695179
000360 55 5c 65 ba 9a 64 3a 3f 2e 77 45 3e 23 a1 ae be
       -0.0008749415 0.72809756 0.19283745 -0.34107313
000370 aa 4e a2 3e 0a 88 b9 be 8c 5d 93 be 6c 6b c0 bd
       0.3170064 -0.36236602 -0.28782308 -0.09395489
000380 1f 20 55 3f 6f c9 03 3e a5 f1 1d be 72 4b d7 3d
       0.8325214 0.1286981 -0.15424211 0.10512437
000390 64 3c 1c 3e 23 5c 64 3f b1 d4 19 be 67 5b 8f be
       0.15257412 0.8920309 -0.15022542 -0.27999422
0003a0 f4 ba 78 bd e5 c2 64 bf 72 95 73 3e e3 58 b4 bf
       -0.060725167 -0.89359885 0.23787478 -1.4089626
0003b0 cd 0c e7 3e 44 14 db bd 0f 5d b1 bd 7b 61 4c be
       0.45126954 -0.10697225 -0.08660328 -0.19959061
0003c0 fe 36 04 be d2 f8 9b 3e b1 ec 0d bf 27 bd e9 3e
       -0.12911603 0.30463272 -0.5543929 0.45652124
0003d0 99 d5 0e 3d 3c 3f 8a bf 5a 76 6d be 37 44 3f bd
       0.03487167 -1.0800548 -0.23189679 -0.046695914
0003e0 4d 91 3f 3f 49 9a fa 3c 49 dc 11 3e c2 48 3b 3e
       0.74831086 0.030591147 0.14244188 0.18289474
0003f0 ed a3 2c bf 33 ea 93 3f 54 60 aa 3e 5c 42 b3 3e
       -0.6743763 1.1555847 0.33276618 0.35011566

arith.constant1 f4 [64, 64]
000000 fc 14 3e 3f 3f 9d 03 3e ff 94 8c 3f 11 cc c7 be
       0.7425077 0.12852953 1.098297 -0.39022878
000010 da 57 5a 3b de 67 d4 bd d5 ba 00 3f 24 a5 dd 3c
       0.0033316524 -0.103713736 0.50285083 0.027056284
000020 03 15 da bd 6e 08 60 bc b0 66 57 3e 48 99 01 bd
       -0.10648539 -0.013673885 0.21035266 -0.03164032
000030 2f 50 46 3f 09 6b ae 3f 14 55 a6 3f 94 4a 91 be
       0.774661 1.3626415 1.2994714 -0.2837721
000040 f7 5b f6 3d b4 f0 73 3e bb 9a b3 3f 69 54 77 3e
       0.1202926 0.2382229 1.4031595 0.24153294
000050 34 3e 91 3d 8f cc dc bc 73 17 97 3e e2 f6 58 3e
       0.070919424 -0.02695301 0.29510078 0.21187928
000060 5d 90 0b 3f 0c 5b 4c 3e 3e 50 28 3e 08 c2 a9 3f
       0.54517156 0.19956607 0.1643686 1.3262339
000070 de 24 a0 be f4 bc 14 3e 92 ff 0c bf c4 a3 97 3f
       -0.31278127 0.14525205 -0.5507747 1.1846852
000080 34 44 4c bd af 18 9a bf cf 22 0a bf af 1d 56 3f
       -0.04986973 -1.2038783 -0.53959364 0.83639044
000090 f5 15 8e be 15 1c fd 3e 87 07 3b 3d 7d f6 d3 be
       -0.27751127 0.49435487 0.045661476 -0.41398993
0000a0 a0 cd da bf 79 29 7a be 49 a7 85 3f 54 46 0d bf
       -1.7094002 -0.24429883 1.0441676 -0.5518544
0000b0 40 72 90 3e c3 ca be 3e cc a3 39 bd b5 4c 28 3f
       0.28212166 0.3726407 -0.045322224 0.65742046
0000c0 77 ab a8 be 3f 0e 9b bf 8a 05 aa 3f 8a 6f 80 3f
       -0.32943317 -1.2113723 1.328294 1.0034039
0000d0 31 a3 84 3f bb 71 29 3f 18 b8 dc 3e c4 c0 d7 bd
       1.0362302 0.66189164 0.43109202 -0.10534814
0000e0 ea 56 69 bf 6d c0 8e bf 86 c2 fb be 00 7b 74 bd
       -0.91148245 -1.1152474 -0.49171847 -0.059687614
0000f0 53 38 26 c0 36 a5 ca bb 10 05 f7 3c 17 10 49 3e
       -2.5971878 -0.0061842455 0.030153781 0.19635044
000100 8f be af be 80 9e ad 3e 86 86 68 be 55 a1 48 3e
       -0.34325072 0.33909988 -0.22707567 0.19592793
000110 1d 69 9f bd 98 e0 2b bf 7a 5f 95 be 4f 13 96 3f
       -0.07783721 -0.6713958 -0.29174405 1.1724643
000120 ee 2b 6f 3d e8 bb 3a 3e 89 15 15 3e 2d 45 91 be
       0.058391504 0.18235743 0.14558996 -0.2837309
000130 32 61 e2 be 7d 3b ad bd 3d 01 e5 be 8d 87 a7 3e
       -0.4421478 -0.08458612 -0.44727507 0.32720605
000140 e2 4a 69 bd e8 78 09 bf 3d ab 01 3c 0c 59 51 bf
       -0.05695618 -0.53700113 0.007914362 -0.817765
000150 b3 e1 91 3e 2b 62 4d 3f 1a 14 17 bf 03 f2 94 be
       0.28492507 0.8022792 -0.5901505 -0.2909089
000160 16 3e 5d bf 45 4c 18 3f dd 22 41 3f 99 dd 25 bd
       -0.8642286 0.5949138 0.7544382 -0.040494535
000170 40 f6 e8 bd 45 87 fc 3e 18 1e 02 3f c4 08 21 be
       -0.113750935 0.49321952 0.5082717 -0.15726
000180 87 51 80 3d e5 fa 3b 3f 3c a4 82 be ff 33 ba be
       0.0626555 0.7342971 -0.25515926 -0.36367795
000190 9f 57 88 3f b2 8f 1c bf 47 19 55 be 21 0f f6 be
       1.065174 -0.6115676 -0.20810424 -0.48058417
0001a0 b4 97 bf be 2d d9 4e bf 9b 31 58 3d d5 27 37 bf
       -0.37420428 -0.80800134 0.052781682 -0.71545154
0001b0 ad 5f 4f bd 12 2e 2a bf 13 95 fe 3e bb 36 06 3e
       -0.050628353 -0.6647655 0.4972311 0.13106816
0001c0 2e 7a 5a bf a0 27 e7 3d e7 6b c7 be 5f 34 54 be
       -0.8534268 0.11286855 -0.3894951 -0.20723103
0001d0 d6 68 ce be 3e 51 03 bf cf ad 2a be d1 66 58 3f
       -0.40314358 -0.5129584 -0.16667865 0.84531885
0001e0 32 8f 80 be 56 ef 7c 3e a3 de 38 3e 32 fa 97 bd
       -0.2510925 0.24700674 0.18053679 -0.07420768
0001f0 f4 07 37 3e ea bb 99 3f 40 36 33 3f 5d 53 30 3d
       0.17874128 1.2010472 0.70004654 0.04304825
000200 fa 35 cc 3d 80 de fe bd 96 f9 bd 3e 58 2a db bc
       0.09971233 -0.12444782 0.3710448 -0.02675359
000210 24 ca 61 3e 50 af 9c 3d 9e 33 03 3f c2 bb 35 39
       0.22049767 0.07650626 0.51250637 0.0001733145
000220 72 70 4c 3d de b6 81 3e 3a 93 ef 3c 55 00 85 3c
       0.049911924 0.2533483 0.029245008 0.01623551
000230 83 18 98 bd 19 2a 8c 3e 6c 27 73 3e 2d ac 70 3d
       -0.0742655 0.27375868 0.23745507 0.05875795
000240 62 a3 81 bc 4f ae 5a be 82 4f 6a 3d 89 fb 58 3e
       -0.015824977 -0.21355556 0.05720473 0.21189703
000250 9e dd 19 3f 10 5b be bd f2 00 c3 3a 9a 1c 30 3d
       0.60103786 -0.092947125 0.0014877601 0.042996027
000260 e1 e7 54 bd 2f dc 18 bd 28 2c fa bd b5 0b d6 bc
       -0.05197895 -0.03731936 -0.122154534 -0.02612863
000270 8b 89 35 bf 47 78 c5 bc 96 16 8f be 70 7e 70 3e
       -0.70913 -0.024105204 -0.2794692 0.23485732
000280 69 3b ba bd 60 6a a4 be c5 ff 9f 3d c8 ad 8c 3e
       -0.09093363 -0.32112408 0.07812456 0.27476335
000290 f2 d5 9d be c5 ee b2 3e ce 3b 84 be a4 79 c8 bd
       -0.3082729 0.34947792 -0.25826877 -0.09788826
0002a0 ff 79 99 be e2 98 8e 3e 01 44 91 3e de 80 06 be
       -0.29975888 0.27851015 0.28372195 -0.13135096
0002b0 29 51 1c 3e 2b 13 a3 3d 59 6a 8a 3c c3 f7 1c 3e
       0.15265335 0.079626404 0.016896414 0.15328889
0002c0 6d 20 c6 be 5c 09 77 3e 10 f9 0d 3e 2d 38 1e 3d
       -0.38696614 0.24124664 0.13864541 0.038627792
0002d0 1c 37 e5 3d b0 69 79 3e 43 3c 81 3d 73 c4 fe bd
       0.11192152 0.24356723 0.06310322 -0.124398135
0002e0 1b 08 8f be 6c c3 91 be ae 0a 5f 3c e5 a5 5f 3e
       -0.2793587 -0.28469408 0.013613386 0.21840627
0002f0 9a a8 3f be 76 b3 98 be 9e 17 b6 3d 5f bb 60 be
       -0.1871666 -0.29824418 0.08891223 -0.21946476
000300 52 fc 96 3d 52 6d 0e 3e 3f f0 05 3f e2 a8 09 3f
       0.07372345 0.1390889 0.5231971 0.5377332
000310 a3 68 99 be 3a 14 cf 3d 1c 29 86 3e 77 c8 8d be
       -0.29962644 0.1011128 0.2620324 -0.27692005
000320 2c 1a a8 3e 4c 43 96 3f 2f ea 8e 3e f8 14 ad be
       0.32832468 1.1739287 0.27913043 -0.3380506
000330 db 07 3a 3f 79 99 bc 3e c8 88 3d bf 4a c3 d0 3e
       0.72668236 0.3683584 -0.74036837 0.40773994
000340 1f a4 9b 3e 0f 3f a8 be 9f 0b 56 be 01 96 7d be
       0.30398652 -0.3286061 -0.2090287 -0.24764253
000350 52 4a 8c bd dc 8c 39 3f 3c 0f bc 3e 34 88 82 3e
       -0.06850113 0.7248056 0.36730373 0.2549454
000360 24 ad ea 3d 42 aa 5d be fb 2e 18 bf 80 f6 16 3f
       0.11458805 -0.2164698 -0.59446687 0.5896988
000370 a9 e4 5b 3f 34 cf 02 3e 54 cf 6e 3e 52 b6 2c 3e
       0.8589578 0.12774354 0.23321277 0.16866425
000380 60 11 3a bf ea 67 a3 be 18 1a 49 3c ea 47 86 3e
       -0.7268276 -0.31915218 0.012274288 0.2622674
000390 f5 94 be be e3 a0 9b 3e fb 27 75 be 8b 78 72 bf
       -0.3722302 0.30396184 -0.23941033 -0.94715184
0003a0 64 5b cd 3e 02 fc 2d 3e 2f ca 80 3e 6e 7b cb 3e
       0.40108788 0.16990665 0.25154254 0.39742607
0003b0 ab 31 a2 be 6c 3b d1 bb 75 b9 11 bf 80 7b f9 3e
       -0.3167852 -0.0063852575 -0.5692361 0.48727036
0003c0 b5 0b 42 bf 91 8b 32 3e 03 55 45 3f 05 f8 a0 3f
       -0.75799114 0.17436053 0.7708284 1.257569
0003d0 f9 19 e5 bc 56 7b 2b 3f d4 d3 d4 3d 9e 3f 19 bf
       -0.027966486 0.6698507 0.103919655 -0.598627
0003e0 69 01 c6 3e d0 c6 51 3e 2f 5d 70 bf 9f fa 6f 3b
       0.3867295 0.20485997 -0.93892187 0.0036617888
0003f0 11 0b 19 3f 82 af c5 bf 91 8d 14 3f 8b c1 0d bd
       0.5978251 -1.5444186 0.58028513 -0.034608405

arith.constant2 f4 [64, 64]
000000 0a d2 3e 3e 6c 48 c6 3d 81 99 9f be 0d 8b 19 bf
       0.18634811 0.09681782 -0.31171802 -0.599778
000010 b7 e7 a1 be 91 4d 8e bd ab df cf be be 92 b2 be
       -0.31622097 -0.06948388 -0.40600333 -0.3487758
000020 df 0c 8f 3f e6 db d2 be 2b 21 f3 bd b3 65 5d 3f
       1.1175803 -0.41183394 -0.11871561 0.86483306
000030 14 b0 a5 bd 72 e3 51 3e 7e 15 3f bf a1 40 b2 3e
       -0.08090225 0.2049692 -0.7464217 0.34814933
000040 ad b3 9d 3d dd f3 cd bd 55 49 1c bf 69 f9 0b 3d
       0.07700286 -0.10056279 -0.61049396 0.034173403
000050 bf 19 5c 3e ca 71 d4 3c 2d 6c 48 bf 7b 67 6e 3f
       0.21494196 0.025933165 -0.78290063 0.9312665
000060 a8 a5 0e 3f 8f 91 2c bf ce b3 27 bf 0a 72 40 be
       0.5572152 -0.67409605 -0.65508735 -0.18793502
000070 91 fc 7e be 28 cc 01 3f 72 a8 7c 3e f4 54 29 bf
       -0.24901034 0.5070214 0.24673632 -0.66145253
000080 68 d7 11 be 78 bf 98 3e 23 ae 0c bf 5f 12 c9 3e
       -0.14242327 0.2983358 -0.5495321 0.3927183
000090 cb 52 39 be 8d dc c6 bf 14 8c 7a 3d 32 39 0a be
       -0.1809799 -1.5536057 0.061168745 -0.13498381
0000a0 a8 47 6b 3e b9 24 a6 3f f1 b8 dc 3e 7f 5a 20 3f
       0.22976553 1.2979957 0.4310985 0.62638086
0000b0 1d 05 e8 be 76 02 49 3f cd d2 c2 3c fe a8 4a 3e
       -0.453164 0.7851938 0.023782158 0.19791028
0000c0 56 bb e6 be a1 07 d9 be 33 bf 4b 3f 16 fc a9 3e
       -0.450648 -0.42388633 0.7958862 0.3320014
0000d0 ab 0e ad be b4 c9 27 3d bb 44 da bc 74 55 78 be
       -0.33800253 0.040963843 -0.026644101 -0.24251348
0000e0 dd 9c 95 3e c0 34 1c 3d ec 55 5c bf 35 33 87 bf
       0.2922124 0.038136244 -0.86068606 -1.0562502
0000f0 1c ff 32 3f 4a 70 f8 bd 86 78 0d bf 48 96 03 bf
       0.69920516 -0.121307924 -0.5526203 -0.51401186
000100 ad 68 a3 be 22 96 29 bf a0 bb 3d bd d4 74 49 bf
       -0.319158 -0.6624471 -0.04632151 -0.7869389
000110 f5 9f 11 bf 39 e8 ef 3e 69 b6 8a bf 65 6c 28 bf
       -0.568847 0.4685686 -1.0836917 -0.65790397
000120 c7 f2 70 be 57 d9 1b bf 4d 82 c5 be 79 cd 93 3f
       -0.23530112 -0.6087851 -0.38575974 1.154708
000130 9e 79 84 be 30 82 ac be f9 df 48 3e e0 7f 1d 3e
       -0.25874037 -0.33693075 0.19616689 0.15380812
000140 59 c4 3f 3f 67 31 29 3f 76 20 27 3f 4c 74 24 3d
       0.7490898 0.66091007 0.65283906 0.04014997
000150 5f 1e 70 3f cc 95 d0 be 98 32 0c 3f fc 9c 67 bf
       0.9379634 -0.40739286 0.547647 -0.90473914
000160 0b d6 0f 3f 2b f4 3b be 52 65 b0 bf ab 1d eb be
       0.5618598 -0.18354861 -1.378092 -0.45921072
000170 72 40 77 be 4e 28 2c be 70 ff 1d 3e 28 f0 72 3e
       -0.24145678 -0.1681225 0.15429473 0.23724425
000180 b9 e8 46 be 57 7f 22 be 02 cd 18 be 92 91 82 3e
       -0.19424714 -0.15868889 -0.14921954 0.25501686
000190 e1 90 3a be 8e 45 1c 3d 7a 2f 09 3f 42 5f 33 be
       -0.1821933 0.03815227 0.5358807 -0.17516807
0001a0 ab 17 5a 3e c7 50 9e be 40 cb 2e bf 80 03 e2 be
       0.21298091 -0.30921003 -0.68278885 -0.44143295
0001b0 69 1d 50 3e d8 ec 93 bd da bf 25 3f bd a1 99 3e
       0.20323719 -0.07222909 0.6474587 0.3000621
0001c0 ca 77 ca 3f 0b 0e d5 bd 0c cd db be db 58 c2 be
       1.5817807 -0.10403069 -0.42929876 -0.37958416
0001d0 f8 60 79 be fd 3b 3f bf 32 c0 99 be f2 29 62 be
       -0.24353397 -0.7470091 -0.30029446 -0.22086313
0001e0 ee 70 ba be 76 c7 d6 3e 71 d5 44 bc b0 09 db be
       -0.36414284 0.41949052 -0.012013779 -0.42780828
0001f0 9b 5b 1d 3e 4b 87 61 3c 10 54 c6 3d 94 16 c8 3e
       0.15366976 0.0137651665 0.096840024 0.39079726
000200 c4 ab 1e bf 60 24 17 3e 88 4c 5a 3e c5 0f 7c 3d
       -0.61980844 0.1475997 0.21318257 0.061538476
000210 14 4f 48 3f 2f a8 66 bf aa db 0f 3f 50 f9 0e 3d
       0.78245664 -0.9010038 0.56194556 0.03490573
000220 4a c7 81 bf 1e bd 46 3e 51 c8 58 be e8 d3 0d bf
       -1.0138943 0.1940808 -0.21170165 -0.5540147
000230 a5 fe a3 3e b7 79 37 3d ba 46 39 3f 91 b7 1e 3e
       0.32030216 0.04479381 0.72373545 0.15499713
000240 67 66 5e bf 4c a7 a2 be a9 62 14 be 9f 9d 79 3e
       -0.86875004 -0.31768262 -0.14490761 0.24376534
000250 c0 ec 86 bf 5c a9 a5 be 15 ab ab 3e 3e 09 98 be
       -1.0541 -0.32355773 0.33528963 -0.2969455
000260 d4 29 c4 3c c9 9c b2 be 3b eb 93 3f e9 c5 0e be
       0.023945726 -0.34885243 1.1556162 -0.13942684
000270 40 15 77 3f 9a 96 b5 bd 10 df 4f bf ba b3 27 3f
       0.965168 -0.088666156 -0.8119974 0.65508616
000280 d9 dc c8 be 65 80 57 be 31 28 64 3f 7f 15 92 3f
       -0.39230993 -0.21045072 0.8912383 1.141281
000290 f2 d9 3b bf 11 32 21 bd 67 fd d4 bf be df 79 3f
       -0.73379433 -0.039354388 -1.6639832 0.9760703
0002a0 85 68 a1 3f b9 e5 47 bf f5 e8 4a 3e 51 da d0 be
       1.2610022 -0.78084904 0.19815429 -0.40791562
0002b0 fc 0e 90 3e d2 8b 1e bd 82 37 59 bd 6a d3 75 be
       0.28136432 -0.03870756 -0.053031452 -0.2400643
0002c0 db d5 e5 3d 74 5a c3 be 83 eb 14 be e0 19 17 bf
       0.1122243 -0.38154948 -0.14542966 -0.5902386
0002d0 d5 36 a7 3e b8 d2 15 3e c7 81 a0 3d d8 66 1a bd
       0.3265902 0.14631164 0.07837253 -0.037695736
0002e0 51 1f 89 3e aa 07 fd be 5b 97 8f 3e 7c d0 8e 3e
       0.26781705 -0.4941991 0.28045163 0.27893436
0002f0 c6 22 50 bf 1a 5f f4 3c 37 37 83 3c e2 93 94 3e
       -0.8130306 0.029830504 0.01601754 0.29019076
000300 63 e1 88 be a7 9d 18 3f df b0 5d be 63 fb f2 bd
       -0.26734456 0.5961556 -0.21649502 -0.118643545
000310 63 dd 4f bf a2 34 f7 3b 03 db b0 be 06 e6 ae bd
       -0.81197184 0.007544116 -0.34542093 -0.08539967
000320 e1 e6 9a be f1 1e 5f 3e 94 ee 7b be ed 05 0c be
       -0.30254272 0.21789147 -0.24602729 -0.13674136
000330 d6 a4 3c 3f 9e 93 20 be 58 8b 08 bf c0 63 2c bf
       0.7368902 -0.15681311 -0.5333762 -0.67339706
000340 0d e5 d2 be 34 76 2f be 52 bc 92 3e ec 5e 3f bc
       -0.41190377 -0.17134935 0.28659302 -0.011680346
000350 bc 2d 35 3e 80 2c 81 3e 7d 61 7b be 04 f3 b4 be
       0.17693228 0.25229263 -0.24548908 -0.35341656
000360 e4 51 c9 be 3d af b1 3e 5b 1c a4 3e 91 7d d7 3e
       -0.3932029 0.3470401 0.32052884 0.42087987
000370 ff 75 05 3e f8 59 13 be 6e b5 0b bd 93 6e 1a 3c
       0.13033293 -0.14389789 -0.03410857 0.009425777
000380 fc 47 f4 3e f2 2e bc 3f 44 8c eb 3e 72 2e aa be
       0.4771117 1.4701827 0.46005452 -0.3323856
000390 ae 97 fc be b7 33 e8 3e 0e 91 f6 be 80 97 a0 bf
       -0.49334472 0.45351955 -0.48157543 -1.2546234
0003a0 bc e1 6a 3f 3b f0 8d 3e 0c 60 48 3e 40 54 9c 3f
       0.91750693 0.27722344 0.19567889 1.2213211
0003b0 e9 9f 3d 3f 34 a4 c1 be 67 7d 36 be 9d 81 4a 3d
       0.7407213 -0.3782059 -0.17821275 0.049440015
0003c0 0f 7a c7 3e 7b 60 f5 3e cf ac 03 3f 0a 69 1e bf
       0.3896031 0.4792517 0.5143556 -0.61879027
0003d0 c0 c9 b1 3e ae bf 3c 3f 8b d6 10 3e 97 a7 3d 3e
       0.34724236 0.7372998 0.14144342 0.18520962
0003e0 6c ca b3 3d 79 5a 6d 3e d2 43 4c 3e f8 9f 56 bd
       0.08778843 0.23179044 0.19947746 -0.05239865
0003f0 c7 d6 07 bf 22 4c 17 be 27 f3 f8 3e 05 dc 36 3e
       -0.530621 -0.14775136 0.4862301 0.17857368

arith.constant3 f4 [64, 64]
000000 1c 03 24 3e c3 09 3b 3f 65 e4 6c bf 58 4d 01 bf
       0.16016811 0.7306177 -0.92536 -0.5050864
000010 9a 28 31 bf 6d 54 28 3f 3e f7 f6 bd 7d 6e d6 3e
       -0.6920258 0.65753824 -0.120588765 0.4188117
000020 f7 df 6e 3d b2 e6 a5 be d3 a4 68 bf cc 31 84 3e
       0.05831906 -0.3240257 -0.908765 0.25819242
000030 ff 16 93 be 32 28 89 3f 0a a8 23 bf f6 62 9d bf
       -0.28728482 1.0715392 -0.6392828 -1.2295825
000040 cd 99 e7 be ca 13 51 3f e6 c7 aa be 70 3e c4 3e
       -0.45234528 0.8167082 -0.33355635 0.38328886
000050 09 78 4d be b6 db 87 3d 12 95 20 3e 20 2f 3a 3f
       -0.20065321 0.066337034 0.15681866 0.7272816
000060 f8 e5 df 3e 36 2e 72 3e 3a bc 1a be 83 83 81 bf
       0.4373014 0.2365044 -0.15110865 -1.0118259
000070 22 a5 56 3f 58 a3 09 3e ce d0 0f bf 91 55 4d bf
       0.8384572 0.13441217 -0.56177986 -0.8020869
000080 b5 04 ac 3e e7 87 c5 3f 16 e5 96 bf ce 8b c7 3f
       0.3359734 1.5432099 -1.1788661 1.558954
000090 db 3d d3 be b1 40 39 bf 65 6a bf be a0 5c 60 bf
       -0.4125813 -0.72364336 -0.3738586 -0.87641335
0000a0 a5 42 9f 3f 48 6e 04 3f 0d c7 c0 3f 46 88 f6 3e
       1.2442213 0.51730776 1.5060745 0.48150843
0000b0 34 1f fd be 6c 56 ee 3e fd 90 b9 bd a0 f2 74 be
       -0.4943787 0.4655031 -0.090608574 -0.23920679
0000c0 57 b7 37 3e dc db 56 bf 94 ef 45 bc 54 87 37 bf
       0.17941032 -0.8392923 -0.012081046 -0.7169087
0000d0 ee a3 a6 be c8 bf 7e 3f 65 d2 b1 3e 7b e4 af 3d
       -0.32546943 0.99511385 0.3473083 0.08588501
0000e0 ea a8 3b bf 08 da 04 c0 01 f9 c8 bd 5d 41 ce be
       -0.7330462 -2.0758076 -0.09813119 -0.40284243
0000f0 7d 2d 01 bf f7 6d e4 3d 59 ff c4 bd 05 2f 01 3e
       -0.50460035 0.11153787 -0.09619016 0.12615593
000100 90 95 a2 3e 45 9f 12 bf 71 1b 64 3e e3 8f 71 bf
       0.31754732 -0.57274276 0.22276093 -0.9436018
000110 f4 d9 7f 3f f9 ea 19 bf a3 c6 0b 3f 53 14 57 3f
       0.99941945 -0.60124165 0.5459997 0.8401539
000120 cc 7a 37 be 1b cb 9d 3f dd 02 ba 3e f0 4a 3e bf
       -0.17917937 1.2327608 0.3633031 -0.74333096
000130 23 a4 5c be d1 96 26 bf 1c 0e 38 bf bf 36 65 bd
       -0.21546988 -0.6507388 -0.7189653 -0.055960413
000140 e8 90 d2 3e 61 7e ac bf d8 8a 9d 3f 17 3d 51 bf
       0.4112618 -1.3476068 1.2307997 -0.8173384
000150 f7 7f ed be ce 98 db be 3e 67 9e 3e a0 f9 4b bf
       -0.46386692 -0.42890018 0.30938143 -0.7967777
000160 ef 2f 7c 3e 99 a4 49 3d 79 2d 2e 3f b3 27 c4 be
       0.2462766 0.04922924 0.68038136 -0.38311538
000170 2b 99 f2 3e 63 9d b4 be 9b 07 0e 3f 91 f5 09 3e
       0.47382483 -0.35276327 0.55480355 0.13472582
000180 fc 74 46 bf 25 a7 42 bd dd 35 17 3e 26 4f f6 3e
       -0.77522254 -0.047522683 0.14766641 0.4810726
000190 23 0a 13 bf c0 20 83 3e 7e e7 0a bf f7 57 78 be
       -0.5743734 0.25610924 -0.5425948 -0.24252306
0001a0 cf 31 9c be 59 da d8 bd 51 12 21 bd 70 5f 20 be
       -0.3050675 -0.105885215 -0.03932411 -0.15661407
0001b0 59 b1 18 3d af 39 be bf 17 73 b2 be 13 6e fa 3d
       0.037278507 -1.4861354 -0.34853432 0.12228026
0001c0 5e b2 36 3f 79 30 73 3e e7 ac 2f 3e d8 1c 5b bf
       0.71365917 0.2374896 0.17155801 -0.8559089
0001d0 7e c5 0a be 69 ef 63 be 31 5e 96 3d ae 08 b0 3d
       -0.135519 -0.22259296 0.07342184 0.085954055
0001e0 ea 8c 03 bd 88 99 86 bf ac 44 1f 3e b5 4b 13 3e
       -0.032116808 -1.0515604 0.1555354 0.14384349
0001f0 ea 31 0e bf 1d f3 81 bd 04 c6 3d bf e8 48 17 3f
       -0.5554491 -0.06345198 -0.7413027 0.5909562
000200 46 ae f1 bd e9 09 e0 3e 40 d7 46 3e 1c 54 b0 be
       -0.11800818 0.4375756 0.19418049 -0.3443917
000210 62 9e 81 3f 17 94 50 be 51 cd 88 3e 9d f9 90 3f
       1.012646 -0.20368992 0.26719144 1.1326176
000220 70 44 91 bf 33 90 d9 3d 93 11 c9 3e b3 8c 9f be
       -1.134901 0.10623207 0.3927122 -0.31162032
000230 69 2b 35 be 48 88 8b 3d 35 0b 06 bf a4 b9 18 3e
       -0.17692341 0.06813103 -0.5236085 0.14914566
000240 74 4d 6d 3e dc 6c 89 bf 26 48 9e bf 67 7f 6f be
       0.23174077 -1.0736346 -1.2365768 -0.23388444
000250 f5 ed 21 3f 00 ff 1b be d8 b2 87 3d c3 f1 b8 be
       0.6325372 -0.15233994 0.066259086 -0.3612195
000260 c9 14 8c 3e c7 fa 08 3e bd 1d d7 3e 27 47 c1 be
       0.27359608 0.13376914 0.42014876 -0.37749597
000270 cc fd 44 3f 86 94 cd 3e 3c c1 b5 bd 7c 2f 1f 3c
       0.76949763 0.40152377 -0.08874747 0.009715911
000280 77 b1 e4 3e 08 85 6d 3e 30 88 9b be 19 8f a8 3f
       0.44666645 0.23195279 -0.3037734 1.316867
000290 ea 22 75 3e a2 22 81 3f fb ee b4 bf 32 4f 85 3f
       0.239391 1.0088694 -1.4135431 1.0414793
0002a0 e5 25 7b 3f 0d 52 d8 bf 8b bb 07 3e bf 36 38 bf
       0.981047 -1.690004 0.13255136 -0.71958536
0002b0 19 42 bc bd c6 df 3c be 2a eb 60 3f c4 cc 97 be
       -0.091922946 -0.18444738 0.8785883 -0.2964841
0002c0 62 b3 83 3e db 00 15 3e e7 fa 88 bf d3 ba 46 bf
       0.25722796 0.14551108 -1.0701569 -0.7762882
0002d0 a7 4b 08 bf a4 50 1a bf c4 db 13 bf a7 1c 59 3f
       -0.53240436 -0.602793 -0.5775721 0.84809345
0002e0 d2 b9 d3 be 3e 39 8f be 5c 51 dc 3e d8 d2 52 bf
       -0.41352707 -0.2797336 0.43030822 -0.8235297
0002f0 4a db d3 be 4b 5c 77 3e 65 d0 13 3f cd 40 bd 3f
       -0.41378242 0.241563 0.5773986 1.4785401
000300 21 0b 46 3d 34 41 46 be 44 85 81 be 17 a4 05 be
       0.048350457 -0.1936081 -0.25296986 -0.13050877
000310 65 03 07 bf c4 7a 8c be 1f d4 c5 3e ee c9 a8 3e
       -0.52739555 -0.27437413 0.38638398 0.3296656
000320 6d ae 19 bf 11 58 89 3f 7b fe 56 3e 1f 9e d0 3e
       -0.6003178 1.0730001 0.20995514 0.40745637
000330 12 cc 06 be ee 59 82 bd e5 17 59 be 45 cd 11 be
       -0.13163784 -0.06364809 -0.21200521 -0.1423846
000340 c0 f9 47 3e 68 f5 7d be e7 ef 86 be b2 2a 0d bf
       0.19528866 -0.24800646 -0.26354906 -0.5514327
000350 e0 49 27 bf fd 4d 06 3f ff 61 f1 3e 9a 3c 75 be
       -0.653471 0.5246275 0.47145078 -0.23948899
000360 0a ea 68 bf ce 02 6a bd 38 d9 8b bf 0a 2c a0 3e
       -0.90982115 -0.05713158 -1.0925665 0.312836
000370 b5 25 af 3d 28 4f 36 3e 42 c1 9a be e6 f5 fd 3e
       0.08552114 0.17803633 -0.3022557 0.49601668
000380 ed 28 70 bf 36 35 a0 3d d8 a3 09 bd f3 30 75 3e
       -0.9381245 0.07822649 -0.03360352 0.23944454
000390 24 09 3f 3d 92 eb d2 be 6b 38 9d bd 89 30 61 bf
       0.046639577 -0.4119535 -0.076767765 -0.87964684
0003a0 6a 2f ac bb 34 ea 0d be 6d 5d fa bd 6d 03 07 3f
       -0.0052546756 -0.13858873 -0.12224851 0.527396
0003b0 5d 22 d0 3e ef 5d a7 be 84 9d 9d bd 05 70 08 3f
       0.40651217 -0.32688853 -0.07696059 0.5329593
0003c0 39 7d 25 3e cd 90 2a bf 64 fc bc 3e bf 9e 36 be
       0.1616105 -0.666272 0.3691131 -0.17833994
0003d0 a2 75 94 3e 4f 21 21 3f 3d d4 1d 3e c5 51 ed 3e
       0.28995997 0.6294145 0.15412994 0.46351448
0003e0 11 66 2e 3f 78 26 17 bf 56 9f 00 3e b0 ec 83 be
       0.6812449 -0.59043074 0.12560782 -0.25766516
0003f0 73 f8 06 be 1a e9 5b 3e 22 49 4b 3e a6 df 0d 3f
       -0.13180713 0.2147564 0.19852117 0.55419385

arith.constant4 f4 [64]
000000 99 46 bc 3e 82 35 69 be 7f 50 c9 3e 4a 27 d8 3e
       0.36772612 -0.22774318 0.39319226 0.42217475
000010 ae 93 41 3e 32 96 17 be dd 4f b8 3d a7 c6 26 3e
       0.18903992 -0.14803389 0.08999608 0.16286717
000020 c7 0c 12 bc d9 94 3a 3e 90 c3 c3 3e c0 41 fe 3e
       -0.008914179 0.18220843 0.3823514 0.49659538
000030 73 ad 9c 3e de c3 86 bd 13 1a ce 3e 62 b3 ba 3e
       0.3060108 -0.065803275 0.40254268 0.36464983
000040 8f 7d a1 bd a9 6a 96 3e 7e 52 fc bd 8c f5 e8 3e
       -0.078852765 0.2937825 -0.12320422 0.45499837
000050 97 f6 e1 3e 1b 23 78 3e 99 dc 50 3e 81 ae 61 3f
       0.44133446 0.24232142 0.20396651 0.88156897
000060 f1 8b 49 3e da d0 22 be 04 5f ef 3d b2 4c ab bb
       0.1968229 -0.15899983 0.11688045 -0.0052276487
000070 43 62 1e bd f8 1a 14 3e 97 e2 02 3d 2c c3 48 be
       -0.03866793 0.14463413 0.031954374 -0.19605702
000080 55 19 a2 3e 08 a3 3b 3e 0f e1 32 3f f2 fe c1 3e
       0.31659952 0.1832391 0.6987466 0.3788982
000090 ec 12 e8 3d 87 e4 1c 3e 87 12 11 3f f6 62 45 3f
       0.11331734 0.15321551 0.56668895 0.7710413
0000a0 dd 43 7f 3f 14 40 db 3e 34 46 ac 3d 80 81 58 3e
       0.99712926 0.42822325 0.08411828 0.2114315
0000b0 1b 40 37 3f 93 65 e5 3e de c4 ee 3e 2a 76 07 3f
       0.7158219 0.44804057 0.46634573 0.5291468
0000c0 2a c7 08 3f 4c 9a 0f 3e 51 56 a9 3e ea 82 02 be
       0.534289 0.14023703 0.33073667 -0.12745252
0000d0 9e 97 45 3d 72 9c a7 3e 98 bb 25 3f 56 e6 cb 3e
       0.048240297 0.32736546 0.6473937 0.3982417
0000e0 6f 2e 90 be 02 89 2c 3f 3d 08 78 3e 3d c2 89 3e
       -0.28160426 0.6739656 0.24221893 0.26906005
0000f0 98 44 59 bd 6e 37 3a 3e 39 11 bf 3e f1 b7 92 3e
       -0.05304393 0.18185207 0.37317827 0.2865596

arith.constant5 f4 [64]
000000 55 d4 c7 3e 14 50 80 bd 30 06 83 3f 45 bc dc 3e
       0.39029184 -0.06265274 1.0236263 0.43112388
000010 e3 e7 f8 bc 07 6f ec bd 41 39 11 3e dc 29 62 3e
       -0.03038401 -0.11544614 0.14181997 0.2208628
000020 89 7e c3 3d da 60 bd bd ca a7 24 bf e3 93 c5 3d
       0.09545619 -0.092469886 -0.64318526 0.09647348
000030 c2 a7 f6 3e da f3 50 3f 36 74 eb 3e a0 dd ba 3d
       0.48174864 0.8162209 0.459871 0.09124303
000040 83 da 26 be df 8a 78 be 06 00 1f 3e dc 4d c2 3d
       -0.16294293 -0.24271725 0.15527353 0.09487507
000050 db bd 04 3d df 73 17 be 24 53 02 bf 8f 03 fe 3e
       0.032407623 -0.14790295 -0.5090811 0.4961209
000060 37 02 16 3e 21 0f 44 be a4 de 23 3e e9 a2 27 be
       0.14649282 -0.19146396 0.160029 -0.16370739
000070 4f e2 63 bf c4 27 9a be bf 5c 6c bd b1 09 7d 3e
       -0.89017195 -0.30108464 -0.057705637 0.24710728
000080 29 60 ad bd 95 4b 78 be 0e 50 64 3d 31 a4 0d 3f
       -0.08465607 -0.24247582 0.05574041 0.5532866
000090 20 e8 d2 be 14 58 11 3f ca ec 69 3d f8 32 56 bf
       -0.41192722 0.5677502 0.057110585 -0.8367152
0000a0 75 3e 83 bf ee e6 e6 bd 72 29 8f 3e ba b9 67 3e
       -1.0253435 -0.11274515 0.27961308 0.22629443
0000b0 7b a7 8f 3d 9b 06 34 3f ed f3 00 bf 76 88 1c 3e
       0.07014366 0.7032258 -0.503722 0.1528643
0000c0 18 dc 19 bf f4 85 8f 3c 98 41 c3 3e 73 ea bf 3e
       -0.6010146 0.017519929 0.38135982 0.37483558
0000d0 44 d4 2c 3f ed 28 85 3d ea 5e 14 3f f2 fb 60 be
       0.6751139 0.065019466 0.5795733 -0.2197111
0000e0 ef 91 45 be b9 e3 69 be 23 d4 0b bf bd 41 af 3e
       -0.1929395 -0.22840776 -0.5462057 0.34229842
0000f0 7c 17 19 bf 74 18 0a bf 80 dc 89 be ed e9 70 bf
       -0.5980146 -0.5394356 -0.2692604 -0.9410694

arith.constant6 f4 [64]
000000 99 5d 86 3f 50 cc 2b 3f ad 8d 83 3f 9f bd 8b 3f
       1.0497314 0.6710863 1.0277611 1.0917243
000010 6e 67 7a 3f ce 16 8a 3f 31 2c c6 3f 0a ce 96 3f
       0.9781407 1.078821 1.5482236 1.1781628
000020 25 26 80 3f 0b e9 92 3f 0b 13 43 3f ec 44 99 3f
       1.0011641 1.1477369 0.7620093 1.1974158
000030 3b be 6d 3f 6b e4 8a 3f 0d 6e 49 3f 5e d5 21 3f
       0.92868394 1.0850958 0.7868355 0.632162
000040 fb f7 a4 3f 84 95 90 3f 5b 96 95 3f 24 ab a0 3f
       1.2888178 1.1295629 1.168651 1.2552228
000050 93 65 85 3f 45 b0 36 3f 2a ea 53 3f da 49 89 3f
       1.0421623 0.71362716 0.8277918 1.0725663
000060 e7 55 8a 3f cc 32 3d 3f 51 5f 5f 3f a7 8a 95 3f
       1.0807465 0.73905635 0.87254816 1.1682938
000070 a5 22 7a 3f f8 e8 9d 3f 4a 62 82 3f 7a 89 03 3f
       0.97709113 1.2336721 1.0186245 0.5138165
000080 f2 d4 a5 3f eb 52 82 3f 62 e6 97 3f c0 d1 71 3f
       1.2955611 1.0181555 1.1867182 0.9446068
000090 32 49 a2 3f 04 ac 95 3f 77 64 a3 3f 19 45 90 3f
       1.2678587 1.169312 1.2765034 1.1271087
0000a0 b2 27 6b 3f 76 c1 a4 3f a2 e7 8f 3f 14 e7 9f 3f
       0.91857445 1.287154 1.1242564 1.2492394
0000b0 7f 4f 96 3f 09 4a 81 3f 5e b6 8e 3f 8e 7a a0 3f
       1.174301 1.0100719 1.1149404 1.2537401
0000c0 79 1a 9d 3f 9e da 85 3f 89 23 83 3f d2 34 85 3f
       1.2273704 1.0457342 1.024522 1.0406744
0000d0 3f f9 88 3f 38 98 a1 3f c7 0c 8d 3f df 32 8a 3f
       1.0701064 1.2624578 1.1019524 1.0796775
0000e0 86 8d 71 3f 62 9b 23 3f e2 e8 99 3f fe 44 65 3f
       0.9435657 0.6390897 1.2024195 0.895584
0000f0 0d 5c 84 3f 56 57 92 3f aa bc 8a 3f ce 55 68 3f
       1.0340592 1.1432903 1.0838826 0.9075593

arith.constant7 f4 [64]
000000 f1 9f 73 3f fa 12 aa 3d 51 f6 ab 3f 5e 4c 20 3f
       0.95165926 0.08304401 1.3434545 0.6261653
000010 e6 53 c0 be 3f c7 c3 3d 26 60 61 be 34 b6 cc 3e
       -0.3756401 0.095594876 -0.22009334 0.3998276
000020 a0 a7 7d 3e 34 ea ed 3e 23 f8 10 3f a1 1b 04 3f
       0.24770975 0.46467745 0.56628627 0.5160466
000030 be 65 2d 3e 60 c5 42 3e 14 d6 b1 3e 0d a9 eb be
       0.16933343 0.19020605 0.3473364 -0.46027413
000040 bc 92 83 3e 40 98 56 be 48 01 36 3f ef c8 34 3f
       0.25697887 -0.20956516 0.71095705 0.706191
000050 99 8d 31 3e 6b 13 08 3e a5 85 09 3f 4c 50 28 3f
       0.17339171 0.13288657 0.5371955 0.65747523
000060 18 40 e4 3d e7 2c 64 3e 5d 39 54 be ec 87 aa 3e
       0.111450374 0.22282754 -0.20725007 0.33306825
000070 1f 54 54 3e 3b 87 1b 3f 88 f3 da 3e 6f e2 b9 bc
       0.20735215 0.6075322 0.42763925 -0.02269098
000080 4c d4 93 bc 5e da be 3e ef 60 ec bc d6 1d 8e 3f
       -0.018045567 0.37275976 -0.028854815 1.1102855
000090 b9 84 88 3e 78 5d 1c be 4a 7c f0 bd 28 b7 c4 3f
       0.2666376 -0.1527003 -0.11742456 1.5368395
0000a0 4e 79 93 3d e6 a8 b3 be a0 ef 21 3f 85 5d 27 3e
       0.072008714 -0.35089797 0.63256264 0.16344269
0000b0 40 bc 04 3f ec 75 1f 3d 76 95 ab 3d b2 60 16 3f
       0.51849747 0.03893082 0.08378117 0.58741295
0000c0 72 fe 09 3f a3 cc a5 be 90 9f 66 3f da 4d 6a 3f
       0.5390388 -0.32382688 0.90087223 0.9152504
0000d0 19 ae 1b 3f e7 f2 63 be c0 44 ec 3e 7d 76 71 3d
       0.60812527 -0.22260629 0.46146202 0.05895089
0000e0 d6 a4 15 3e da cb 11 40 b0 5f a5 3e 18 1d bf bc
       0.14613661 2.278067 0.32299566 -0.023329303
0000f0 9d b7 cc 3f b7 43 46 3f ab 8a b9 be 4e 5b a4 3f
       1.5993534 0.77447075 -0.36238608 1.2840364

arith.constant8 f4 [64, 64]
000000 55 21 17 be 23 46 4d be 7d f6 aa be 3c 9d 92 3d
       -0.14758809 -0.20046286 -0.3339118 0.07158896
000010 f1 9a b7 3d 76 fe 32 3f 7d 5a 94 3e 47 03 8d be
       0.089650996 0.69919527 0.28975287 -0.27541563
000020 bc 8b 3f 3e 69 6e 9f 3d c0 b0 51 be ef 5f b2 be
       0.18705648 0.07784731 -0.20477581 -0.34838817
000030 31 15 1a bd 32 3a 3b 3e bc 67 4f 3e 82 b0 b8 be
       -0.037617866 0.18283918 0.20254415 -0.36072165
000040 54 11 06 3f a1 2c 2a be a0 30 da bd a4 b8 13 3e
       0.5237019 -0.16618587 -0.10653806 0.14425904
000050 54 53 d8 bd 8b 4f 53 3e 99 57 62 bf a2 4a 85 be
       -0.105627686 0.20635812 -0.88414913 -0.26033503
000060 93 5f 39 be 02 31 39 bc 14 ee 71 3e f7 30 1f be
       -0.18102865 -0.011303188 0.23625976 -0.15546022
000070 aa 5a b0 3e 55 45 23 be 2c 43 95 be 04 ec c5 bd
       0.3444417 -0.15944417 -0.2915281 -0.09664157
000080 41 a0 2d 3e 35 10 e2 be 3f 98 11 be af 2a 66 3e
       0.16955663 -0.4415299 -0.14218234 0.2247722
000090 4e 11 05 3e df a7 f3 bd 5e f4 40 3e f9 84 7e bd
       0.12994882 -0.11897253 0.18843219 -0.06213853
0000a0 83 a4 9f ba ad 53 8f be 0c 09 18 3e 66 6e 05 bf
       -0.0012179766 -0.27993527 0.14847201 -0.5212158
0000b0 e9 09 07 3e 1f cf be be bb 4a 02 bf 9f 40 00 3e
       0.13187374 -0.37267396 -0.5089528 0.12524651
0000c0 32 f1 fd be e3 61 dc bc 9b 1e 54 be 3d c6 fb 3d
       -0.4959808 -0.026902145 -0.207148 0.1229367
0000d0 5e b2 a6 3e 41 df 42 3d d3 93 14 3e 1c 73 df 3d
       0.32557958 0.047576193 0.14509515 0.10910627
0000e0 f0 71 23 3f b0 e8 60 be 18 18 3c 3d 04 fc 7f be
       0.6384573 -0.21963763 0.045921415 -0.2499848
0000f0 aa 4f 87 be 04 0b f1 3d 2c aa 9a 3e 97 fc 23 bc
       -0.26427966 0.11769679 0.30207956 -0.010008953
000100 9d 92 66 3e 86 83 17 3f af 74 44 be 21 81 8d 3e
       0.22516866 0.59185064 -0.19185136 0.2763758
000110 e0 d3 ba be a6 06 53 3f d5 bb a2 be dd ee 28 bf
       -0.36489773 0.8243202 -0.3178393 -0.65989476
000120 94 c6 96 3e e5 6e 0f 3f 87 4e 16 3f b5 03 82 3f
       0.29448378 0.56028587 0.58713573 1.0157381
000130 c7 7a a2 be ef e8 9a be 5c e4 6f 3d 08 f5 9e bd
       -0.31734297 -0.3025584 0.05856739 -0.0776158
000140 66 52 ac 3e 8d 67 10 3f 37 99 ed 3d 20 18 91 bd
       0.33656615 0.56408006 0.11601489 -0.070846796
000150 3c 97 5f 3e 27 25 b5 3e c4 cf de be 34 f3 b2 be
       0.21835035 0.35379907 -0.43517888 -0.34951174
000160 cd 9d 51 bf c8 94 e5 3e 2a 7b a5 3e d9 4d 87 be
       -0.8188141 0.44840074 0.3232053 -0.2642658
000170 7e cc fc 3e af 27 83 be 96 34 b8 3e f5 50 bd 3e
       0.49374765 -0.25616214 0.3597762 0.36975828
000180 9e ee a6 be d9 08 de be 33 6e 39 bf 06 9b 48 bf
       -0.32603925 -0.43366125 -0.72433776 -0.78361547
000190 6e 28 b9 3e 3a 25 6a 3f 22 45 89 be 23 c1 e4 3e
       0.36163658 0.91463053 -0.26810557 0.44678602
0001a0 c4 a0 68 bd 65 9e 2d bf b8 56 01 bf 5c e4 d0 3e
       -0.056793943 -0.67819816 -0.5052295 0.40799224
0001b0 e2 e2 bc 3e 68 fd 16 3f cd 52 9b be f2 12 ba 3e
       0.36891848 0.5898042 -0.3033661 0.3634258
0001c0 cb b9 77 3e 73 5a 49 be a7 52 fd be f8 b7 b6 be
       0.24191968 -0.1966341 -0.4947712 -0.35687232
0001d0 0d 3e 8b 3e 87 e0 b4 3e 80 f0 4c bb 4a b0 3d 3e
       0.27195778 0.3532755 -0.003127128 0.1852428
0001e0 70 85 d5 3e e6 6a a0 3e 66 10 5c 3f e6 20 4d 3f
       0.41703367 0.31331557 0.8596252 0.80128324
0001f0 47 5b 4c 3f 0c ee ad 3e 38 f8 40 bf eb c9 36 bb
       0.7982678 0.33970678 -0.7537875 -0.0027891349
000200 bd a7 80 3b 42 07 bb 3d 79 96 88 3d 4a 3b 6e 3e
       0.003926246 0.09132244 0.066693254 0.23264804
000210 ef 7f 97 bf 31 e5 19 be f5 a5 7c 3e ce ef 07 be
       -1.1835917 -0.15028836 0.24672683 -0.13275072
000220 a7 93 2b bf fa ce b5 3e 66 86 c5 be ed ca e3 3e
       -0.67022175 0.35509473 -0.385791 0.44490758
000230 d9 ec 22 bf 6c 7c d8 3d 92 a3 1b be 47 70 3e 3e
       -0.6364265 0.105706066 -0.15199116 0.18597518
000240 17 9b ef 3b 96 d3 58 bd 64 5d fa be 81 e4 f2 3e
       0.0073121893 -0.05293616 -0.48899376 0.4743996
000250 b0 e3 03 bf 83 02 97 bf d3 c5 95 3e da 0d 93 3e
       -0.515193 -1.1797642 0.2925249 0.28721505
000260 4d c7 7b bf 42 0e 26 3f 78 e4 96 3e 6b db 9c be
       -0.98350984 0.64865506 0.29471183 -0.30636153
000270 ac 9a be 3e 66 05 56 bd 19 4b 11 3f 5f b8 35 be
       0.3722738 -0.052251242 0.56755215 -0.17746113
000280 37 17 8e 3e 42 40 67 be d7 37 9f 3d 2d 7c 9f be
       0.27752087 -0.22583106 0.077743225 -0.31149426
000290 1d 99 ca 3e 54 73 ad bd 6c 1a e9 3d d5 20 f5 3e
       0.3956994 -0.08469263 0.11381993 0.4787661
0002a0 05 e1 d8 bd ee 95 38 bf da 8f 6f bf 7a 40 67 be
       -0.10589794 -0.72103775 -0.93578875 -0.2258319
0002b0 72 13 c7 be fd 69 96 bd 8a 10 e7 3e 9f dd 67 be
       -0.38882023 -0.073444344 0.45129806 -0.22643135
0002c0 c9 69 bc 3d d6 d3 24 3e d0 f6 68 bf 7b 8b 86 3e
       0.091998644 0.16096434 -0.91001606 0.2627829
0002d0 9c f9 c4 be 34 64 99 3d 36 b4 d4 3d e9 04 97 3f
       -0.38471687 0.07489815 0.10385935 1.1798373
0002e0 47 9b 6e bf 47 32 84 3d cc 38 97 3e 4d 5e 47 3c
       -0.93205684 0.06454902 0.2953552 0.012168479
0002f0 58 62 d3 3e 22 04 3f 3e 2c df fe bd 3f cb ef 3d
       0.41285968 0.1865392 -0.124449104 0.11708688
000300 35 13 be 3d 9f b9 49 be 69 dd 19 3f 78 2d 07 bf
       0.09281007 -0.19699715 0.6010347 -0.52803755
000310 99 64 bb 3e 15 a5 1a bf 94 41 3d bf 8c 5c 29 3f
       0.36600187 -0.60408145 -0.7392819 0.6615684
000320 83 18 05 3f 5a 2a 3d bc ab 29 66 bf c6 35 98 3e
       0.51990527 -0.011545742 -0.8990733 0.29728526
000330 8e 4d 20 3f 10 ea b4 3e 8d 61 3e bf 62 8b 2e bf
       0.6261834 0.35334826 -0.743676 -0.6818143
000340 ad 19 0b bf ae 09 a4 3e 4a 1a 3b 3f 72 37 f0 be
       -0.54336053 0.32038635 0.7308699 -0.469173
000350 ed 78 60 bf ca b2 50 be e1 7b 9a 3f 54 cc c8 3e
       -0.8768452 -0.20380703 1.2069055 0.3921839
000360 13 10 18 3f 0d f5 04 bf 3e 0f 8a 3e ea 1c ad bd
       0.5939953 -0.5193642 0.26964754 -0.084527805
000370 4f ac c9 be 52 11 1c 3e 32 13 56 be 9e f7 76 3d
       -0.39389274 0.15240982 -0.2090576 0.06029474
000380 70 05 73 3d ed e8 e2 3e 62 5d 89 be e8 59 25 3f
       0.059331357 0.44318333 -0.26829058 0.6459031
000390 37 ad e6 3d 62 13 ae 3e db 59 1a be bb b1 3b bf
       0.11263507 0.33999163 -0.1507334 -0.7331807
0003a0 31 a2 a8 3e 72 ca dc 3e 3d 44 4f 3e a6 50 96 be
       0.32936242 0.43123204 0.20240875 -0.29358405
0003b0 ce 2a a4 bf db 01 a8 be e2 0b 64 3f cd d7 f7 3d
       -1.2825563 -0.32813916 0.8908063 0.121017076
0003c0 4b a6 54 be 31 03 4a be 03 40 16 3f 9b 19 ee 3d
       -0.2076656 -0.1972778 0.58691424 0.116259776
0003d0 fe 93 e1 be a1 06 43 3e 00 dc 9b 3c 22 3e 3c bf
       -0.44058222 0.19045497 0.019025803 -0.7353231
0003e0 f8 b9 0d be ac 4f b0 bd 15 a8 ad bf 42 69 c8 be
       -0.13840473 -0.08608946 -1.356692 -0.39142805
0003f0 22 fa 06 be d7 8b a0 3c 61 e3 42 3e fc 84 24 3e
       -0.13181356 0.01959793 0.1903205 0.16066355

arith.constant9 f4 [64, 64]
000000 d2 a3 4a bf 49 65 82 bf ef ef 64 3c 84 19 bf bf
       -0.7915622 -1.018716 0.01397322 -1.4929662
000010 fd cc a8 3c 4f 85 00 be e2 ce d6 be ff a6 38 3e
       0.020605559 -0.12550853 -0.41954714 0.18032454
000020 91 0e 8d 3d 06 81 51 bf 24 ba ea be 65 c6 05 be
       0.06887544 -0.818375 -0.4584514 -0.13063963
000030 c3 13 5b 3d 51 50 eb 3e 9c a2 48 bf 4d 0e 51 bf
       0.053485643 0.45959714 -0.7837312 -0.81662446
000040 7f 8b ec bf 3c b2 61 bf 6b 10 89 be 9c 21 eb be
       -1.8480071 -0.8816259 -0.26770338 -0.4592408
000050 df 95 17 bf 7c cb a9 3e 81 73 7d be a1 10 c0 be
       -0.5921306 0.3316306 -0.24751092 -0.37512687
000060 b6 81 c0 3e 4c 0c 89 be 22 1a dc 3e 17 1f 68 3d
       0.37598962 -0.26767194 0.42988688 0.056670275
000070 ef 35 53 3e 49 97 95 3d 45 71 2e bf b2 21 56 3d
       0.20626043 0.07304246 -0.68141586 0.052278228
000080 1a 86 83 3e 9f 43 1a be 37 24 88 bd a1 9c 8e 3e
       0.2568825 -0.15064858 -0.066475324 0.27853873
000090 e9 48 c8 3d e1 81 a6 bd 12 6f 59 bf 15 cd bd be
       0.097795315 -0.08130241 -0.84935105 -0.37070528
0000a0 5b 92 84 bf 17 79 80 bc 75 b3 2e be 53 bc 75 3e
       -1.0357164 -0.01568274 -0.17060645 0.23997621
0000b0 57 5c d2 bb 32 41 97 3e 7f 68 75 be f7 e8 99 be
       -0.006419699 0.29541928 -0.23965643 -0.3006055
0000c0 de 25 26 be 2e a1 11 3d 5e c5 0c 3f 0e ec aa 3e
       -0.16225383 0.035554104 0.5498866 0.3338322
0000d0 5c 38 28 bf 38 b4 81 bf f2 a3 1b bf a8 07 28 bf
       -0.65711 -1.0133123 -0.60797036 -0.6563668
0000e0 42 39 13 be 31 6f 92 3e 32 37 03 be fe 68 4d bf
       -0.14377311 0.28600457 -0.12814024 -0.8023833
0000f0 c0 97 25 bf d4 d6 46 bf 2d 74 19 be e3 8d 62 bf
       -0.6468468 -0.7767155 -0.14985724 -0.8849775
000100 ce 9e b8 be 5a a2 05 be 12 e5 bb 3d 3a f8 ea bd
       -0.36058658 -0.13050213 0.09174551 -0.11473127
000110 a3 8a d2 3e ac 65 6d bf 1f 17 59 bf 6b 21 13 bf
       0.41121396 -0.92733264 -0.84800905 -0.57472867
000120 6c 7d dc 3e cd 1a d4 be 25 d6 35 bf da d1 bb 3d
       0.4306444 -0.41426697 -0.71029884 0.091708854
000130 96 ab c9 bd 93 ea 73 be 42 12 85 be 81 a4 00 bf
       -0.098471805 -0.23819952 -0.25990492 -0.50251013
000140 51 9d 39 be 1a 9f ce be f9 f8 94 3e 0d 6a 15 3f
       -0.18126418 -0.4035576 0.290962 0.58364946
000150 7d 3c a7 be 09 37 91 bf 2d 47 35 3e bd 36 aa be
       -0.32663336 -1.134492 0.17702933 -0.33244887
000160 ae 30 93 3e 6b 3e cc 3e 46 8a a2 bd b9 79 ae 3e
       0.28748077 0.3989137 -0.0793653 0.34077242
000170 1f f3 77 3e 4b 2c 51 3e 30 ef 77 bd b0 15 ee be
       0.24213837 0.20427053 -0.06053084 -0.4650092
000180 88 2b 3a be 87 81 16 3f d0 df 9f 3e 54 7a 99 3f
       -0.18180668 0.58791393 0.31225443 1.1990457
000190 07 c2 07 3f d6 dc 67 bb 8a 70 4c bf 65 de 48 3c
       0.5303044 -0.0035379431 -0.7985922 0.012260054
0001a0 fb 6a 83 bd e1 6e 93 3e 45 af 60 3e 34 50 4f bf
       -0.06416889 0.2879553 0.2194186 -0.80981755
0001b0 fc 44 1f be 70 b6 b5 be c5 92 df bc d1 d3 be bd
       -0.15553659 -0.3549075 -0.027291665 -0.093177445
0001c0 c0 e2 a8 bd 60 12 0d 3d 0d f7 cf be dd 8f 06 bf
       -0.08246374 0.034441352 -0.40618172 -0.5256327
0001d0 f0 b1 6f 3e 4d c1 94 be 50 00 49 be e0 5a 9e 3e
       0.23407722 -0.29053727 -0.19629025 0.30928707
0001e0 0e d3 c2 be 55 f7 ab bd e0 e5 90 3e 31 38 ff bb
       -0.38051647 -0.08396784 0.2830038 -0.007788681
0001f0 e9 a8 b9 3e 6a 66 37 bd 22 29 64 3f df 42 f9 3e
       0.3626168 -0.044775404 0.89125264 0.4868383
000200 f2 5a b2 3e ea 4f 94 bf bb 32 6c 3e 49 54 97 bb
       0.3483501 -1.1586888 0.23066227 -0.004618202
000210 31 c4 81 bf dd 79 0f bf bc 9e 59 3f f2 02 a6 3e
       -1.0137998 -0.56045324 0.85007834 0.32424122
000220 f7 31 d7 bf 34 07 23 3f 6a a3 56 3e a5 79 cf 3e
       -1.6812123 0.63682866 0.20960775 0.40522495
000230 34 21 e7 3e 64 33 21 40 e1 7a 7f bf 85 14 b2 3e
       0.4514252 2.5187616 -0.99796873 0.3478128
000240 12 ab 5d bd 4f 03 51 3e 40 ad 40 3f b9 48 94 3f
       -0.054118223 0.20411418 0.7526436 1.1584693
000250 50 45 32 bf cd 1f fe bd 02 5b fa be 58 bb cc 3e
       -0.6963701 -0.12408409 -0.48897558 0.39986682
000260 16 58 90 3b 58 33 7a ba b7 4c 8c 3e 13 a7 c2 3e
       0.004405032 -0.0009544394 0.2740228 0.38018093
000270 3f 27 d4 3e 10 e4 c9 3d e9 79 fa 3e 61 77 d9 be
       0.41436192 0.098579526 0.48921135 -0.4247389
000280 47 7e 14 40 aa 5d 5a bd 70 00 e0 3d 99 df 83 3d
       2.3202074 -0.05331198 0.109375834 0.06439132
000290 32 f9 b6 3e 09 4b 0a 3d 18 5a 1b 3f 37 6f f1 bd
       0.35736996 0.033762965 0.6068435 -0.11788791
0002a0 d4 1a c9 be f7 93 f0 3d a7 08 34 3e 8c 99 0c bf
       -0.3927828 0.11746972 0.17581426 -0.54921794
0002b0 8c 69 56 be db 23 a7 bb ac 17 da bd 52 93 7b bf
       -0.209387 -0.00510071 -0.10649046 -0.9827167
0002c0 a3 2c 25 bf ae 2a b9 3d d6 6a ba be 02 8f 22 40
       -0.64521235 0.09041344 -0.36409634 2.5399785
0002d0 25 e3 5d bf 4f 72 e9 3e 1e 33 04 3f fa 7b 8d 3f
       -0.8667472 0.45595023 0.516405 1.105346
0002e0 5f 97 70 bf 2c 2b a8 bf aa dd 37 3f 70 1b 91 bd
       -0.93980974 -1.3138175 0.7182261 -0.070853114
0002f0 e3 8e 88 3f c3 90 45 3f 32 d0 a4 bf d9 b6 f9 3e
       1.0668606 0.77174014 -1.2876036 0.48772314
000300 0f 4e 59 3e aa ef 46 be 92 d1 97 3e 72 a8 e2 3e
       0.21221183 -0.19427362 0.29652077 0.4426914
000310 34 a0 2d be b7 23 31 3f b7 6f ea 3d a4 eb f2 bd
       -0.16955644 0.6919512 0.11447089 -0.11861351
000320 57 41 1c bf 33 3d 37 3f 05 85 a4 bf 2d af ed be
       -0.610372 0.7157776 -1.2853094 -0.4642271
000330 29 6d c2 bd 3f 81 27 3f ae 86 2e bf 3c 16 ce 3e
       -0.09493477 0.6543159 -0.68174255 0.40251338
000340 42 ec cb 3e 25 1e 45 3e 5d 31 a2 3e 73 24 14 3f
       0.39828688 0.1924978 0.31678286 0.5786812
000350 81 58 65 be e3 97 d8 be ee 0b e3 3a 8a ab d5 bd
       -0.22397043 -0.4230338 0.0017322281 -0.10433109
000360 92 2e 54 be 03 de 47 3f 25 cd 9c 3f 1a f6 cd 3e
       -0.2072089 0.7807314 1.2250105 0.40226823
000370 ef e6 02 3f 44 9e ce bc 0b c9 05 3f dd a7 c7 bf
       0.51133627 -0.025221951 0.5225989 -1.5598103
000380 e0 24 6c 3f 6e 62 a6 3e bd f7 86 be 6a b8 37 3e
       0.92243767 0.3249697 -0.26360884 0.17941442
000390 f2 24 b0 be 8e 01 d8 be f2 c8 bf be 45 fe 02 be
       -0.34403187 -0.42188686 -0.37457997 -0.12792309
0003a0 bd 22 06 bc 77 cc 90 3d c3 e9 20 3d 0d 18 9a be
       -0.008186993 0.070702486 0.039285433 -0.30096474
0003b0 58 62 3a bf 35 d8 d0 be 61 f4 1c 3e 39 24 ad be
       -0.7280631 -0.40789953 0.15327598 -0.33816698
0003c0 4d d6 80 be 7f 8f c2 be fe 5d 7e bd 47 0a 71 3f
       -0.251635 -0.38000104 -0.062101357 0.94156307
0003d0 4f a4 01 bf e7 17 9d 3c 0f 83 8f be d9 eb 65 be
       -0.5064134 0.019176437 -0.28029677 -0.2245325
0003e0 de 05 c3 be f3 5b 0a bf 28 ac d9 bd 79 29 d5 3e
       -0.38090414 -0.54046553 -0.10628539 0.41633204
0003f0 e3 11 d9 3e 17 62 b5 3e 46 c0 04 bf 30 47 11 3f
       0.4239646 0.354264 -0.51855886 0.5674925
