src/realtime_getdata/TempParam/K60168-Test-00256-008-v0.0.8-20230717_240cm/ai_acc_weight/sram_tflite/TinyML1M/CNN.tflite (tflite, 13924 bytes, 9 tensors)

online_cnn_fw/batch_normalization_3/batchnorm/mul f4 [64]
000000 c1 b6 86 3d 42 d7 54 3d 86 50 96 3e b0 38 09 3e
       0.06577826 0.0519631 0.2935831 0.13400531
000010 31 cb 12 40 8f 47 e6 3f 92 4d 23 3f e1 10 2e 40
       2.2936518 1.7990588 0.6379024 2.7197802
000020 22 c6 82 3f d5 b4 fc 3d 60 16 4d 40 e6 47 54 41
       1.0216715 0.123391785 3.2044907 13.267553
000030 e4 99 f2 3e e7 80 b2 41 ce af 3f 3f c2 84 8f 3f
       0.47383034 22.31294 0.7487763 1.121239
000040 73 2d 3f 3f 9f 07 e4 3e 4d 26 b1 3e f3 83 96 3f
       0.74678725 0.44537064 0.34599534 1.1759018
000050 26 c9 6b 3f 03 4b 38 40 bc 90 47 40 b1 6b b3 3e
       0.92103803 2.8795784 3.118209 0.350431
000060 ca 7e 3d 40 56 44 13 40 b8 43 c0 40 ac f6 d6 3f
       2.9608636 2.301046 6.0082664 1.6794028
000070 a8 ac 42 40 51 7d 08 40 6f 29 7e 3f 6a 76 d4 40
       3.041788 2.1326487 0.9928197 6.639455
000080 b2 0e 5a 41 87 cf 86 3f 08 ad 2a 40 a0 24 a2 40
       13.628588 1.0532082 2.666811 5.066971
000090 99 f4 80 40 af fd 52 40 c3 62 0e 3f a3 f6 66 3f
       4.029858 3.2967336 0.5561945 0.9022009
0000a0 00 68 ca 3d 66 a6 d1 40 d1 94 ae 40 d5 ed e1 3f
       0.09883118 6.5515623 5.455666 1.7650706
0000b0 0a 54 1e 40 73 4d 3e 41 a0 d5 31 3f 2d 6b 1c 3f
       2.4738793 11.8939085 0.6946659 0.6110104
0000c0 31 27 df 41 80 c7 29 40 dd c6 f8 3f 72 e0 a7 41
       27.894136 2.6528015 1.9435688 20.984592
0000d0 91 0f 45 40 b2 49 5c 3d c9 d4 93 3e 05 39 f8 3f
       3.079075 0.05378122 0.2887328 1.9392401
0000e0 4f 8a 1b 40 b7 21 b4 41 5d 95 ec 3f 73 50 16 3f
       2.4303167 22.516462 1.8483082 0.58716506
0000f0 5c 2e ed 3e 71 3f 88 3d c1 27 a5 40 88 bc 4b 3e
       0.46324432 0.066527255 5.161103 0.19896138

online_cnn_fw/batch_normalization_3/batchnorm/sub f4 [64]
000000 3b 73 f5 bd 76 a2 0d be f6 bb 72 be f4 a4 a2 bd
       -0.11984869 -0.13831505 -0.23704514 -0.079416186
000010 82 21 6a be bc 3e 99 be 14 5f 5a bd 84 7d 13 be
       -0.22864345 -0.29930675 -0.05331333 -0.14403349
000020 66 f2 bc bd c7 e1 e2 bd 18 5e 40 be 9e 39 ea bd
       -0.09225921 -0.1107822 -0.18785894 -0.11436771
000030 d6 5f 3d be 08 76 f5 3c d6 82 96 bd e1 b4 96 bd
       -0.1849359 0.029963508 -0.07349174 -0.07358719
000040 91 ef d8 bd e6 27 22 be b6 c4 84 be 77 03 0d be
       -0.10592569 -0.15835533 -0.2593133 -0.13770853
000050 1c 99 1f be d0 79 d1 be a4 36 b4 be 5c c1 03 be
       -0.1558575 -0.40913248 -0.35197937 -0.1286673
000060 d2 c5 5a be ff 11 0b be 69 46 9a bd 81 b6 15 bf
       -0.21364525 -0.13581084 -0.07532961 -0.58481604
000070 3e 04 c8 be a2 7b 3f bf 18 8d 58 be 8a 8a a1 be
       -0.39065737 -0.74798024 -0.21147573 -0.3155101
000080 51 75 60 3d 49 91 14 bf 98 3d ba be 4c 20 0a be
       0.05479938 -0.5803419 -0.36375117 -0.13488883
000090 0c aa 2e be 1d 37 e6 be 56 a6 ab bd 20 fe ee bd
       -0.17057055 -0.44963923 -0.083813354 -0.11669564
0000a0 d4 86 46 be 05 ce 0c be 4b d8 82 bd 78 c5 d6 bd
       -0.1938737 -0.13750465 -0.06388911 -0.10486883
0000b0 09 8b d7 be 7c 19 69 be bd f4 df be 22 b7 ec bd
       -0.42098263 -0.22763628 -0.43741408 -0.11558367
0000c0 88 dc 17 3a 13 b4 1d bf 48 43 32 be f7 0a a9 3c
       0.00057930546 -0.61602896 -0.17408478 0.020635111
0000d0 7b 76 bf be 3e 8c c7 bd 7f 86 06 be 3c 5f 95 be
       -0.3739508 -0.09743546 -0.13137244 -0.2917422
0000e0 9a 8b a8 be b0 e1 1d 3c 2e 25 f4 be 74 58 41 be
       -0.32919008 0.009636328 -0.47684616 -0.18881398
0000f0 2e 49 f9 bd 3c 2b c7 bd 56 9d 9f bd 5f ee 4e be
       -0.12172161 -0.09725043 -0.07793681 -0.20208119

online_cnn_fw/depthwise_conv2d_6/depthwise f4 [2]
000000 00 00 00 00 00 00 00 00
       0.0 0.0

online_cnn_fw/depthwise_conv2d_6/depthwise1 f4 [1, 3, 3, 2]
000000 f7 84 95 3e 1d 3a db 3e 9f 96 69 3d 8e 2e ab 3e
       0.29203007 0.42817774 0.05702841 0.33433956
000010 84 1e d1 3e 20 d5 09 3f f1 09 25 bd ae 06 0e 3f
       0.40843594 0.5384083 -0.040292684 0.5547894
000020 bf 11 91 3e 39 4a a8 3e b2 7e 9f 3f bd 2b 23 3f
       0.28333852 0.32869127 1.2460539 0.63738614
000030 b7 fb f2 be b5 af 3e 3e e1 32 8c 3e 32 14 48 3f
       -0.47457668 0.18621714 0.27382568 0.78155816
000040 8f c3 ba 3f 14 78 3a 3f
       1.459093 0.72839475

online_cnn_fw/depthwise_conv2d_7/depthwise f4 [32]
000000 00 00 00 00 00 00 00 00 00 00 00 00 00 00 00 00
       0.0 0.0 0.0 0.0
000010 00 00 00 00 00 00 00 00 00 00 00 00 00 00 00 00
       0.0 0.0 0.0 0.0
000020 00 00 00 00 00 00 00 00 00 00 00 00 00 00 00 00
       0.0 0.0 0.0 0.0
000030 00 00 00 00 00 00 00 00 00 00 00 00 00 00 00 00
       0.0 0.0 0.0 0.0
000040 00 00 00 00 00 00 00 00 00 00 00 00 00 00 00 00
       0.0 0.0 0.0 0.0
000050 00 00 00 00 00 00 00 00 00 00 00 00 00 00 00 00
       0.0 0.0 0.0 0.0
000060 00 00 00 00 00 00 00 00 00 00 00 00 00 00 00 00
       0.0 0.0 0.0 0.0
000070 00 00 00 00 00 00 00 00 00 00 00 00 00 00 00 00
       0.0 0.0 0.0 0.0

online_cnn_fw/conv2d_6/Conv2D f4 [32, 1, 1, 2]
000000 b4 6b 8f bf 2f 17 f2 be f9 c1 2c bc 50 90 a7 be
       -1.1204743 -0.47283313 -0.010544294 -0.3272729
000010 d0 2f 28 bf b6 49 39 3f ab 31 82 bc fa 14 24 3f
       -0.65697956 0.723781 -0.015892824 0.6409451
000020 4e 53 8c bd 48 17 cd 3e ba aa 64 bc 84 b9 0d be
       -0.068518266 0.40056825 -0.01395672 -0.138403
000030 5b b0 9c 3e c2 5a aa be 3d f3 21 bf 32 c9 35 3f
       0.306033 -0.33272368 -0.6326178 0.71010125
000040 04 ec 30 3d 85 69 49 3f 52 95 e3 3e 4c 14 53 be
       0.043193832 0.78676635 0.4444986 -0.20613211
000050 c6 99 16 3e 0a 9b 0d 3c ac 45 96 bf 4d 2c 83 be
       0.14707097 0.008642921 -1.1740012 -0.25619736
000060 f7 92 0b bf 02 62 58 3f 17 dc 3c bf 85 63 aa bd
       -0.54521126 0.8452455 -0.7377333 -0.08319763
000070 ac 39 a9 bf bd db 1a 3f e3 f9 68 3e 02 e7 4c bd
       -1.3220725 0.60491544 0.22751574 -0.050024994
000080 78 0b 8a bf e1 2e 5d 3f c8 20 06 c0 90 a9 df 3e
       -1.078475 0.86399657 -2.0957508 0.43684053
000090 81 2f e8 3e 06 2f 56 be b6 e2 38 3e 1c 93 78 3f
       0.45348743 -0.20916376 0.18055233 0.9709947
0000a0 05 ab dc be b4 e5 3a 3f da 03 a0 bf d9 65 1f 3f
       -0.43099228 0.7300675 -1.2501175 0.6226478
0000b0 b0 4a 2d bf 97 c6 19 3f 9f 34 49 bf 89 c5 77 be
       -0.6769209 0.6006865 -0.7859592 -0.24196447
0000c0 88 5c 06 bd 38 10 74 3f ae d5 a9 3a ce 29 cd be
       -0.03280309 0.9533725 0.0012957358 -0.40070957
0000d0 eb c5 a9 b9 08 ea 9b be 05 62 07 c0 36 ed 38 3e
       -0.00032381652 -0.3045199 -2.1153576 0.18059239
0000e0 3f 86 d3 3e d8 20 5b 3e 5f 56 10 3f d1 85 06 bd
       0.4131336 0.21399248 0.5638179 -0.03284246
0000f0 34 08 bd 3e f1 a1 6c be 36 bb f5 bf 4d 91 b9 3e
       0.3692032 -0.2310865 -1.9197757 0.36243668

online_cnn_fw/depthwise_conv2d_7/depthwise1 f4 [1, 3, 3, 32]
000000 71 cc a9 3d 65 bd 95 3d 51 d6 8d 3e 47 23 86 be
       0.08290947 0.07311515 0.27702573 -0.2619879
000010 e9 8d 82 3d d5 b1 b6 bd 6b d8 8a bf a7 6a 9f 3e
       0.063747235 -0.089206375 -1.0847296 0.31136057
000020 1b 54 7a be 34 68 ad bc 21 51 0d be b2 d4 02 be
       -0.24446146 -0.021167852 -0.1380048 -0.1277645
000030 f2 ea b9 3f ae 40 87 3e 9c fe d1 be 95 04 5b be
       1.4524825 0.26416534 -0.41014564 -0.21388467
000040 bc 8c 88 3e 95 16 18 be 83 ce 25 bd 8b d0 11 bf
       0.26669872 -0.14852364 -0.040480148 -0.56958836
000050 91 60 4b ba 84 3d ba bf 65 1a 41 3e 28 89 b1 bd
       -0.0007758225 -1.4550023 0.18857725 -0.086687386
000060 09 81 da 3c 8d 7d 4e be 12 7a 19 be 52 e9 a9 3e
       0.026672857 -0.20165081 -0.14987972 0.33185822
000070 7f 9c fe 3e 84 e4 0a bf f4 93 92 3d 49 e2 4f bf
       0.49728772 -0.5425494 0.07157126 -0.8120466
000080 00 07 8b bf 11 12 11 be f7 ae 8e bf 2f bb d7 bc
       -1.0861511 -0.14167048 -1.1147145 -0.026334373
000090 60 06 71 bd 99 7e 7b 3c ef f6 00 3e 0d 43 14 3f
       -0.05884397 0.015350007 0.12594198 0.5791481
0000a0 7f 90 9d be c9 c4 bc be 85 f2 04 3e 49 1c 73 bf
       -0.30774304 -0.36868885 0.12983139 -0.94965035
0000b0 e4 29 e5 3e 20 1b ad 3e 1d 6e 0b 3f a1 3b df 3e
       0.44758523 0.33809757 0.54464895 0.4360018
0000c0 17 5e b7 3e 7e 71 56 bd b3 12 8e bd 11 81 08 3e
       0.35813972 -0.05235433 -0.0693716 0.13330485
0000d0 1e 74 e6 3d 6d 1e 60 bf 46 2b d8 3e 39 7d 21 be
       0.11252616 -0.87546426 0.42220515 -0.15770425
0000e0 a3 46 a2 bb 27 2d 26 3c 2e b5 80 bc 00 65 2c 3f
       -0.004952268 0.010142601 -0.015711393 0.67341614
0000f0 a0 de 5f 3e 3b bb 6b bf 7b 06 78 3e dc e6 da bf
       0.21862268 -0.92082566 0.24221222 -1.7101703
000100 0f 53 62 be ed 1b 21 bd 5d 4e 4e 3f df ff db 3e
       -0.22101997 -0.039333273 0.8058832 0.42968652
000110 3a 7c fd bd 72 0c b0 3d db 2a 9b be 10 cb 9b 3f
       -0.1237721 0.08596124 -0.30306134 1.2171345
000120 10 d4 46 be 24 83 9a 3d b5 96 74 3e b2 44 a9 3e
       -0.19416833 0.07544544 0.23885615 0.33060223
000130 8c 57 df be 55 02 29 3e f3 b0 c8 bd 10 04 ec bd
       -0.4362148 0.16504796 -0.097993754 -0.11524212
000140 0d a7 04 bf f0 ee dd 3e 5f c6 a0 be 6c dd bb 3e
       -0.518174 0.43346357 -0.31401345 0.3669237
000150 a5 6a 0b be 66 87 5b bf 5e 95 13 3e bb 32 d2 bd
       -0.136149 -0.85753477 0.14412448 -0.10263582
000160 e9 94 8f 3e 1b 61 56 be fa 58 b6 bd a6 69 3c 3f
       0.28043297 -0.2093548 -0.0890369 0.73598707
000170 fc 8e e2 3e 3d 1e 66 3d 5c 2e 42 3c 76 09 e2 be
       0.44249713 0.05618118 0.011851873 -0.44147843
000180 4c 4e 34 bf 15 96 bc bd e1 b9 60 be 75 96 e6 be
       -0.7043197 -0.092083134 -0.21945907 -0.45036665
000190 58 c3 4e 3e 25 a0 c3 3d 19 8a 2f 3f 62 b3 9b be
       0.20191705 0.095520295 0.68570095 -0.30410296
0001a0 31 a9 d5 3e e8 4c cd 3e da 4e 0a bd 49 cb 7f be
       0.41730645 0.40097737 -0.033766605 -0.24979891
0001b0 74 72 62 3e 26 b7 6e be 05 22 a1 3f 9d eb 02 3d
       0.22113973 -0.23312053 1.2588507 0.03196298
0001c0 6c 32 36 3e ff a9 33 c0 b1 67 2b bf 20 72 f8 be
       0.17792672 -2.8072507 -0.66955096 -0.4852457
0001d0 5f 36 ff be 7b f7 21 be 0c b1 7f bf 05 09 85 3e
       -0.4984617 -0.15817063 -0.9987953 0.25983444
0001e0 f3 10 1b bf a5 0f d4 bc 9d fe f9 3d 3a 0e d0 3f
       -0.6057274 -0.025886366 0.12206767 1.6254342
0001f0 1e ec 3e be 07 bb 38 be 97 3b bf be 65 16 d7 be
       -0.18644759 -0.18040095 -0.3735015 -0.42009273
000200 49 73 64 bf f1 ca 29 be 27 1f b0 bf 1b ea bd be
       -0.8923841 -0.16581322 -1.3759507 -0.3709267
000210 b9 77 86 3e d1 11 8e 3d a8 64 88 be 61 76 88 3e
       0.26263216 0.06936992 -0.26639295 0.26652816
000220 25 f6 01 3f e2 30 14 bf a3 d0 0d be 92 02 84 bf
       0.5076621 -0.5788709 -0.1384912 -1.0313284
000230 22 7c 37 3f 4a 76 17 3f aa e5 09 40 ab 97 e7 3e
       0.71673787 0.5916487 2.1546426 0.452329
000240 52 20 e4 3e ce 60 80 bf 9d c5 2e bc 83 d0 ae 3e
       0.44555908 -1.0029542 -0.010667232 0.34143457
000250 2c 87 d0 3e 86 fd 7c 3e bd 9e 64 bf 8d 1a 9c 3e
       0.40728128 0.24706087 -0.89304715 0.30489007
000260 84 14 d1 be 43 db 56 be 2a 79 a4 bd 7a cb 59 3f
       -0.40835965 -0.20982079 -0.08030923 0.85076106
000270 90 c1 fc 3d ba 57 2c bf d4 7c 63 be 8a ce 8c be
       0.123416066 -0.6732136 -0.22215587 -0.27501327
000280 ea 86 6b bd 78 b4 18 3d 54 ac ab 3e eb 67 cc 3d
       -0.05750171 0.037281483 0.33529913 0.09980758
000290 bb 82 51 be 24 88 c8 bd 3e 78 61 3e 56 f3 c2 3d
       -0.20460026 -0.09791592 0.22018525 0.09519069
0002a0 2f bc b1 3e be 88 52 be 7f 41 f8 bd e4 e1 57 3f
       0.34713885 -0.20559976 -0.121218674 0.84329057
0002b0 b0 bd 21 3d de 9f a6 bd cd 8f 2d be 66 31 b5 be
       0.03948754 -0.08135961 -0.16949387 -0.3538925
0002c0 d8 87 a8 bf 9c 69 9a bf 82 7b f2 3d 82 62 c7 3e
       -1.3166456 -1.206348 0.118399635 0.38942343
0002d0 3e 36 e2 be aa 88 8c bf 71 92 19 bf cd e9 ee 3d
       -0.44182009 -1.0979207 -0.59989077 0.11665688
0002e0 a4 b5 18 bd 3b 12 c1 3d a8 6e e7 3d 23 f2 80 bf
       -0.0372826 0.09427305 0.11300403 -1.0073894
0002f0 75 ce e4 3e 16 3f 6c 3e e2 92 ae be df 2f b3 bd
       0.44688764 0.2307094 -0.34096438 -0.08749365
000300 29 78 cd 3d 51 4b 25 be 65 07 d3 be 68 ee ed be
       0.10032684 -0.16142012 -0.4121658 -0.46470952
000310 0e 4c 1c 3f e7 9e 28 3d 53 6e b9 3d 40 1d 1b bf
       0.6105355 0.041167166 0.09054246 -0.60591507
000320 70 37 66 3e 8a 4f 39 3f a0 b9 0c 3f e1 3e b7 3d
       0.22482085 0.7238699 0.5497074 0.0894754
000330 6b a2 7b 3e 2a 92 cc 3e 7a 42 15 3f 67 8f 85 3d
       0.24573676 0.39955264 0.5830456 0.065214925
000340 f3 b7 d5 bd 86 8c b1 bf c1 83 d6 be 1c cb 25 bf
       -0.10435476 -1.3871009 -0.41897395 -0.64763045
000350 e3 26 8f 3f 4f 45 e1 3d 8c f4 f2 be b8 a4 0e bc
       1.1183742 0.10999548 -0.474522 -0.008706264
000360 45 2a 5b bf cc 7a 8b be f1 7f bc bd fb bd 05 3f
       -0.85611373 -0.27242124 -0.092040904 0.5224301
000370 30 30 31 bf f2 93 ef be 9b a1 ec bd c4 97 58 3f
       -0.69214153 -0.4679256 -0.11554261 0.84606576
000380 0c 7c ed be 9a 79 1f be 22 75 9f bf 70 9b e9 3c
       -0.46383703 -0.15573731 -1.2457621 0.028516501
000390 55 26 e7 bd f2 ee 4c 3d bb 44 aa bd e1 64 ff 3d
       -0.11286608 0.050032564 -0.083138905 0.12470413
0003a0 9f 78 bd be 9e d7 53 be 6e 8c 78 be a6 e5 d8 3d
       -0.3700609 -0.2068772 -0.2427232 0.10590677
0003b0 8f 7c 1d bf d1 72 38 bf 61 62 5e 3f 4b 0c d7 be
       -0.61518186 -0.72050196 0.86868864 -0.42001566
0003c0 a9 2c 8f bb ed 88 55 bf f2 8c 18 3e 14 84 9d 3e
       -0.0043693376 -0.8341206 0.14897516 0.3076483
0003d0 7b d7 03 be f2 84 1b 3f d7 77 76 be 86 40 73 3f
       -0.12875168 0.60749733 -0.24069153 0.9502033
0003e0 b2 a3 2c bf 95 5c 03 3e ff 02 b1 3d 9c c6 8e 3f
       -0.6743728 0.12828286 0.086431496 1.1154361
0003f0 5d eb 67 3d 31 c1 44 bf 59 4b d1 3e 9c e1 6e bf
       0.056620944 -0.76857287 0.40877798 -0.93313

online_cnn_fw/conv2d_7/Conv2D f4 [64]
000000 00 00 00 00 00 00 00 00 00 00 00 00 00 00 00 00
       0.0 0.0 0.0 0.0
000010 00 00 00 00 00 00 00 00 00 00 00 00 00 00 00 00
       0.0 0.0 0.0 0.0
000020 00 00 00 00 00 00 00 00 00 00 00 00 00 00 00 00
       0.0 0.0 0.0 0.0
000030 00 00 00 00 00 00 00 00 00 00 00 00 00 00 00 00
       0.0 0.0 0.0 0.0
000040 00 00 00 00 00 00 00 00 00 00 00 00 00 00 00 00
       0.0 0.0 0.0 0.0
000050 00 00 00 00 00 00 00 00 00 00 00 00 00 00 00 00
       0.0 0.0 0.0 0.0
000060 00 00 00 00 00 00 00 00 00 00 00 00 00 00 00 00
       0.0 0.0 0.0 0.0
000070 00 00 00 00 00 00 00 00 00 00 00 00 00 00 00 00
       0.0 0.0 0.0 0.0
000080 00 00 00 00 00 00 00 00 00 00 00 00 00 00 00 00
       0.0 0.0 0.0 0.0
000090 00 00 00 00 00 00 00 00 00 00 00 00 00 00 00 00
       0.0 0.0 0.0 0.0
0000a0 00 00 00 00 00 00 00 00 00 00 00 00 00 00 00 00
       0.0 0.0 0.0 0.0
0000b0 00 00 00 00 00 00 00 00 00 00 00 00 00 00 00 00
       0.0 0.0 0.0 0.0
0000c0 00 00 00 00 00 00 00 00 00 00 00 00 00 00 00 00
       0.0 0.0 0.0 0.0
0000d0 00 00 00 00 00 00 00 00 00 00 00 00 00 00 00 00
       0.0 0.0 0.0 0.0
0000e0 00 00 00 00 00 00 00 00 00 00 00 00 00 00 00 00
       0.0 0.0 0.0 0.0
0000f0 00 00 00 00 00 00 00 00 00 00 00 00 00 00 00 00
       0.0 0.0 0.0 0.0

online_cnn_fw/conv2d_7/Conv2D1 f4 [64, 1, 1, 32]
000000 ba b8 45 be 00 ea 11 be b9 b7 8b be ca 7e 18 bd
       -0.19308749 -0.1424942 -0.27288607 -0.03723029
000010 1d 50 23 3e 7e 33 b1 bd 3d bb 46 3e d5 e5 7d 3d
       0.1594853 -0.086523995 0.19407363 0.061986763
000020 89 27 49 3d 58 5d 17 be 94 c6 30 3d 34 c1 83 be
       0.04910997 -0.14781702 0.04315813 -0.2573334
000030 ee c5 f0 3d 74 c1 d1 3e 56 7a ae 3f 76 9d 40 bd
       0.11756502 0.40967906 1.3631084 -0.047025166
000040 47 ab 99 bd 43 6b 4a 3f e9 11 68 3e 65 00 11 bc
       -0.07503372 0.7906992 0.22663082 -0.008850192
000050 c3 4f c0 3e 97 57 38 3e 33 1c 3a bf 4d 09 1d be
       0.37560853 0.18002163 -0.7269928 -0.15335579
000060 3b 05 17 3e cd 79 cc 3c 47 20 58 3e 12 9a 8b bf
       0.14748089 0.024960423 0.21106063 -1.0906394
000070 8d 0f 01 bf 52 0b 47 3f 30 36 86 3e 88 6f 25 3f
       -0.50414354 0.7775165 0.26213217 0.6462331
000080 d9 49 a8 be 96 17 a3 bc b7 54 0d 3e 2d 1e 44 be
       -0.3286884 -0.019908708 0.13801847 -0.19152136
000090 9b 39 c0 3e c0 f1 0d bc c1 8e 4d 3f e2 87 61 be
       0.3754395 -0.008663595 0.8029595 -0.22024491
0000a0 48 44 cc 3d c5 89 4e be 72 8b 46 be 81 cc 87 bf
       0.09973961 -0.20169742 -0.19389132 -1.0609285
0000b0 94 0d 88 bb 13 d0 70 3f 82 c6 03 40 10 5b c9 be
       -0.0041520093 0.94067496 2.058991 -0.39327288
0000c0 f6 17 ff 3d c1 37 85 3e d4 06 4c 3e c1 75 9d 3d
       0.12455742 0.260191 0.1992448 0.076884754
0000d0 98 91 bd be 21 6a a4 bd 4f eb 61 bf 47 9d 74 be
       -0.37025142 -0.08028055 -0.8824968 -0.23888122
0000e0 13 dc 56 3e 85 ff 32 3e 60 15 80 3d a4 35 a8 3e
       0.20982389 0.17480285 0.06254077 0.32853425
0000f0 9a a1 e0 bd c6 83 38 3f c4 a8 ac bd 38 74 90 3e
       -0.10968323 0.7207607 -0.08430627 0.28213668
000100 76 35 1c bf f4 af 18 be 1b 05 78 be ea 24 b1 3e
       -0.61019075 -0.14910871 -0.24220698 0.34598476
000110 a2 fb 3f be 32 c9 8e bd 82 3e 93 3f ff 7f 64 be
       -0.18748334 -0.06971969 1.1503451 -0.22314452
000120 74 87 20 bf f3 f9 39 be 88 43 c9 bd 15 cb fa be
       -0.62706685 -0.18161754 -0.09827334 -0.48983064
000130 81 e1 a1 be 4a 7e d0 3e ce a6 8e be 51 6d cc be
       -0.31617358 0.4072135 -0.27861637 -0.39927152
000140 35 33 56 3e 52 a0 02 3f 91 09 a1 bb 67 27 e8 3e
       0.20917971 0.5102588 -0.0049144705 0.45342562
000150 2a 09 46 3f e2 50 68 3f ae d5 6d 3e 54 f7 77 3e
       0.77357733 0.9074842 0.23226044 0.24215442
000160 8a 86 bf be bb 5a 8b be 9b 0e 34 be e6 51 01 bd
       -0.37407333 -0.2721766 -0.17583697 -0.031572245
000170 65 3d 82 bf 99 81 32 3f 1f 3e 12 be ba 56 c2 3f
       -1.0174986 0.69729 -0.1428151 1.5182717
000180 6f 79 1f be 62 51 0f bd 20 dc 25 3e d6 6b 4e 3d
       -0.15573667 -0.034989722 0.16197252 0.05039581
000190 fd df 90 3d 22 21 bd 3d ee 48 09 3f f9 59 16 be
       0.070739724 0.09234835 0.53626907 -0.1468276
0001a0 a0 51 b3 be 05 9e f7 3e d8 fe 0c 3e cd 3d 94 be
       -0.35023212 0.48362747 0.1376909 -0.289534
0001b0 7f 51 0b be c3 48 d6 bd d3 c0 d5 3e a0 64 6b 3e
       -0.13605307 -0.10463097 0.41748676 0.22987604
0001c0 0c 07 e9 3d fc c0 f1 bf 62 f2 c5 3e c4 2c 20 be
       0.11378297 -1.8887019 0.38661486 -0.15642077
0001d0 e0 f0 b7 be 31 1d 08 bf 32 ee 93 bd ab 6e 8d 3e
       -0.3592596 -0.5316954 -0.072231665 0.27623495
0001e0 66 79 38 3f 40 f6 20 3e 35 6c eb 3d 15 8a d6 3e
       0.7206024 0.15718937 0.11495248 0.41902223
0001f0 0e 4b 46 bf b5 ef b9 3e 40 d2 f9 bd 5b 34 26 bf
       -0.77458274 0.36315694 -0.12198305 -0.6492364
000200 07 c1 aa bc a7 33 dd 3b 9c b0 35 bf 81 cb 93 bd
       -0.020843996 0.006750542 -0.7097261 -0.0721655
000210 92 cc 77 3e 1c b3 a5 3c 51 22 41 bd 0e d7 2c bf
       0.24199131 0.020227008 -0.047151867 -0.6751565
000220 f8 dd 0c 3f ca 5e 96 3e e6 3e 10 be 8c 62 ef 3e
       0.550262 0.29369193 -0.14086494 0.46754873
000230 8b 85 e7 bd f1 2d a6 3e a2 35 9f 3c 5a c1 9c be
       -0.11304768 0.32456926 0.019434754 -0.30616266
000240 aa e0 0e 3f 77 72 7c 3f cc ca 48 bd 27 fe d0 3d
       0.5581156 0.9861216 -0.049021527 0.10204726
000250 d8 a1 a4 3b 07 d9 42 40 37 69 d7 be 5c 1a 92 bd
       0.005024176 3.0444963 -0.4207246 -0.07133934
000260 b8 7d 00 3f 82 14 32 be 2c 56 61 3b e8 39 94 bf
       0.5019183 -0.17390636 0.0034383638 -1.1580172
000270 17 42 1e 3f 7e f6 1e 3f 05 22 b8 3e 1a b1 05 3f
       0.61819595 0.6209487 0.35963455 0.5222336
000280 73 7d 37 be 78 c8 83 3c c9 20 18 bf f5 8a 03 be
       -0.17918949 0.016086802 -0.59425026 -0.12845977
000290 7c c5 df 3e 84 d9 f3 3d 10 0f 56 bf ae b5 14 3f
       0.43705356 0.11906722 -0.83616734 0.5808972
0002a0 42 a4 b8 3e 09 79 48 3f 53 fc 34 3e 5b c5 4b bf
       0.3606282 0.78309685 0.17674379 -0.79598016
0002b0 ae 69 14 bf 0b 79 7e 3e e4 6b 45 bf 38 02 8a 3e
       -0.57973754 0.24850862 -0.77117753 0.26954818
0002c0 4a ff 56 bf c7 1b b4 3f 6e e0 3f be 3d 1b 27 bf
       -0.8398329 1.4070977 -0.18737957 -0.6527594
0002d0 51 62 10 bf 17 40 83 3d e4 4d d3 3d 66 e5 9b 3e
       -0.5640002 0.064087085 0.10317591 0.30448455
0002e0 a0 85 9e 3e 5a 31 90 be dc a8 ba bd 4b 60 6f 3f
       0.30961323 -0.28162652 -0.091142386 0.93506306
0002f0 60 03 6f bf 90 c8 15 3e 77 1e 92 3e 78 69 81 3d
       -0.93364525 0.1462729 0.28538868 0.06318945
000300 2a 72 80 3e d3 ff 67 be cd 04 c7 3e a2 d5 aa bd
       0.250871 -0.22656183 0.3887085 -0.083415285
000310 e8 81 cb 3e 64 c8 5a 3e 95 54 c0 3e eb 90 1b bf
       0.39747548 0.21365505 0.3756453 -0.60768
000320 74 1f 9b 3e c2 7c b1 3d 34 7f f1 be 19 35 34 3f
       0.30297434 0.08666374 -0.4716736 0.7039352
000330 cb 82 bc be 46 1f d3 bd 2e 96 14 3f 7e 25 ae 3e
       -0.36818537 -0.10308699 0.58041656 0.3401298
000340 2f 37 0b be f8 fd a2 bf d2 24 18 bf f6 b5 e8 be
       -0.1359527 -1.2733755 -0.59431183 -0.45451325
000350 3d f7 69 be 33 7b a5 3e bb 69 6c be 8f 14 8d be
       -0.2284822 0.32320556 -0.23087208 -0.27554747
000360 57 95 71 3e d5 78 82 3e aa d9 9f 3d 3b 22 cf bf
       0.23592125 0.25482813 0.07805188 -1.6182321
000370 23 30 22 bf a5 7b 4e 3f 90 6d e4 3f 66 01 2b 3f
       -0.633547 0.80657417 1.7845936 0.6679901
000380 1a a4 68 3e 6e f0 60 3d cb e2 b2 be 75 c6 49 bd
       0.2271885 0.05491679 -0.34938654 -0.04926153
000390 74 c6 d5 bd ce df 64 3e 49 59 b6 3d c2 7f 39 bf
       -0.104382426 0.22351 0.089037485 -0.7246057
0003a0 58 d4 9b 3e 14 9b 66 be 04 b7 fd 3d 6e 82 a7 bd
       0.30435443 -0.22520095 0.12388423 -0.08179174
0003b0 ea bb 7a bf 37 a5 15 3f 71 68 d0 be 1c a3 18 3f
       -0.97942984 0.5845522 -0.40704682 0.59623885
0003c0 78 7c 7e be 9b bf 37 3f e1 4e 82 be e5 ac 9d bc
       -0.24852169 0.7177674 -0.25450805 -0.019247482
0003d0 af 8e 19 3d c6 aa 43 40 51 f7 a8 3d 63 f1 08 bf
       0.03748959 3.0572982 0.08250297 -0.53493327
0003e0 bc 23 38 3c 36 d4 72 be fb 4c c9 bd e9 52 09 3c
       0.0112389885 -0.23713765 -0.09829136 0.008381584
0003f0 56 01 89 3d 71 37 57 3e 47 b2 d4 3e 54 63 51 3e
       0.06689708 0.21017243 0.41542265 0.20448047
